chatbot_model.pth (torch, 984516 bytes, 6 tensors)

l1.weight f4 [128, 1364]
-0.17070737 -0.07722323 -0.13089292 0.008393055 -0.018547017 -0.17718688 0.31922564 -0.050855163
0.4355291 -0.2974186 0.20871264 -0.2801148 -0.0756651 0.40517372 -0.3451188 0.4434599
0.71899444 0.12810658 0.0017406998 0.26067662 0.918836 0.082915165 1.3959701 -0.031992
-0.04751261 -0.058190305 -0.0031597032 -0.11370725 0.044035517 0.112551875 0.25920215 0.7043177
0.65449196 -0.06572239 -0.1444588 -0.018609285 0.37791708 -4.3710195e-05 -0.0658071 -0.27991113
-0.0536918 0.2869074 0.17565648 0.603216 -0.0946753 -0.24359508 -0.5178376 1.2469134
0.12638204 -0.009644061 -0.116043024 0.08220348 -0.28049108 -0.07631419 0.17668994 0.32970053
0.43008465 0.25373438 -0.021118809 -0.030038755 0.6357146 -0.2674146 0.12650335 -0.00018668108
-0.081762046 0.006993141 0.4526905 0.10419981 0.79037476 1.6475174 0.02812445 -0.12602746
-0.25201175 0.04736069 0.9320117 -0.054324534 0.0500317 -0.22398268 1.9566115 0.34765446
-0.011368064 -0.016282298 -0.26854432 -0.042704023 -0.08561545 0.044749197 0.47124898 1.0894088
-0.26947126 -0.043931346 0.1433063 -0.2532812 -0.05017247 -0.5853777 -0.016750574 0.41614702
-0.08544156 0.047473308 -0.2716223 -0.3336069 0.043080393 -0.100819014 -0.10479694 0.03523598
-0.5055208 -0.67943007 -0.056141958 -0.042499155 -0.15651298 -0.16025762 0.0868317 -0.70650804
-0.1790208 0.36422005 -0.095977254 -0.07280031 -0.1120158 0.033614226 -0.010145113 0.2585642
0.40193948 0.16278122 0.36470586 0.24845013 -0.04004427 -0.37958634 -0.41631246 1.5694817
0.6601417 0.010402786 0.7306188 -0.051937405 0.014221039 -0.18008848 0.34073597 0.8715533
0.5576881 0.4468744 -0.1664054 0.15692744 0.13066503 -0.009556194 0.2183053 0.7097639
0.5062063 -0.009290063 -0.036018036 1.5023513 -0.09333129 -0.21298024 0.54971474 0.0902818
-0.0049188514 -0.25690964 0.43857503 -0.1748388 -0.3350537 0.5074067 -0.2441118 1.2135861
0.7848472 -0.005374189 3.1103852 -0.24042463 -0.10673183 -0.028837465 0.08644465 -0.25237
-0.006377301 0.051819 0.3553655 0.9427518 0.18751188 1.9804885 -0.08681098 -0.09362362
-0.09716877 0.934067 -0.21583842 0.36059752 0.46745467 -0.1705758 0.07819248 0.00015822292
0.16959117 -0.2886539 -0.24030963 -0.019883838 -0.29031447 -0.07845851 -0.21007337 0.012476427
-0.11790382 -0.010274635 -0.19291702 -0.29959172 0.06790732 -0.17129219 -0.02324792 -0.15909335
0.31333348 0.10544848 -0.17738347 -0.04478935 -0.021305455 -0.0159593 -0.2585975 -0.106572956
-0.057028305 0.03461762 1.0434369 -0.08506326 -0.26113552 0.06553723 -0.082914084 0.12295608
-0.20161907 0.73980415 0.15023589 -0.22029695 0.09745042 0.33591482 0.1888462 -0.030097345
-0.6170145 0.62356824 0.8484568 -0.24810639 0.1030913 -0.0931122 0.42756513 1.3344189
-0.20208007 0.5059988 0.5733011 -0.051379267 -0.036230836 -0.34576994 0.09046619 0.059446055
0.02684659 0.13804913 1.0163012 0.07965467 -0.16911894 -0.2975879 0.39114943 0.17109646
-0.1559726 0.5089436 -0.039557286 -0.26519012 0.005859517 0.7853036 -0.19906166 -0.0133903865
00000000: eacd 2ebe 3627 9ebd cb08 06be 0683 093c
00000010: eaef 97bc 7a70 35be 8b71 a33e 814d 50bd
00000020: acfd de3e 4047 98be c4b8 553e 356b 8fbe
00000030: 4ef6 9abd ee72 cf3e 69b3 b0be 2d0d e33e
00000040: 0510 383f 5f2e 033e 3128 e43a 6877 853e
00000050: d638 6b3f 6dcf a93d 26af b23f 0b0a 03bd
00000060: 959c 42bd f558 6ebd 0613 4fbb 59df e8bd
00000070: 965e 343d 9981 e63d 25b6 843e 2a4e 343f
00000080: c98c 273f 7699 86bd 02ed 13be 8072 98bc
00000090: 597e c13e 7755 37b8 dfc5 86bd 8350 8fbe
000000a0: efeb 5bbd 87e5 923e 4bdf 333e 5d6c 1a3f
000000b0: 20e5 c1bd fd70 79be 0191 04bf dc9a 9f3f
000000c0: 4b6a 013e 2002 1ebc f7a7 edbd 4c5a a83d
000000d0: 879c 8fbe 9d4a 9cbd 35ee 343e 82ce a83e
000000e0: 0e34 dc3e 79e9 813e 5a01 adbc d613 f6bc
000000f0: 31be 223f 91ea 88be 188a 013e d2bf 43b9
00000100: dc72 a7bd b826 e53b 0dc7 e73e b666 d53d
00000110: 0056 4a3f dae1 d23f 3f65 e63c 580d 01be
00000120: af07 81be 48fd 413d 5298 6e3f 6783 5ebd
00000130: 0aee 4c3d b75b 65be 3f72 fa3f c4ff b13e
00000140: 1e41 3abc 7462 85bc a47e 89be 6aea 2ebd
00000150: 2757 afbd ef4a 373d 8c47 f13e bf71 8b3f
00000160: 23f8 89be 5bf1 33bd e3be 123e 13ae 81be
00000170: a681 4dbd 50db 15bf 8038 89bc 3911 d53e
00000180: fcfb aebd 5f73 423d 1412 8bbe 86ce aabe
00000190: 1175 303d 337a cebd c79f d6bd 9a53 103d
000001a0: d069 01bf 21ef 2dbf 1cf5 65bd 9813 2ebd
000001b0: f044 20be 931a 24be d1d4 b13d b6dd 34bf
000001c0: 3b51 37be 0d7b ba3e b98f c4bd 5418 95bd
000001d0: 8a68 e5bd 12af 093d b037 26bc 8762 843e
000001e0: 03cb cd3e 1fb0 263e baba ba3e b669 7e3e
000001f0: 7605 24bd 2459 c2be e826 d5be c7e4 c83f
00000200: 0cff 283f 7270 2a3c d509 3b3f 51bc 54bd
00000210: 5cff 683c 1d69 38be f274 ae3e 1e1e 5f3f
00000220: a6c4 0e3f b9cc e43e 2d66 2abe 96b1 203e
00000230: 0ecd 053e 9591 1cbc 6d8b 5f3e 16b3 353f
00000240: bc96 013f 5935 18bc a687 13bd 0c4d c03f
00000250: 7a24 bfbd 7e17 5abe 1bba 0c3f aae5 b83d
00000260: 512e a1bb a989 83be e88c e03e f108 33be
00000270: 298c abbe 68e5 013f 72f8 79be ca56 9b3f
00000280: bfeb 483f f719 b0bb 8d10 4740 e031 76be
00000290: 3896 dabd 8c3c ecbc e509 b13d a436 81be
000002a0: aef8 d0bb 2940 543d 78f2 b53e 2f58 713f
000002b0: 1d03 403e a680 fd3f f5c9 b1bd bebd bfbd
000002c0: 6c00 c7bd 041f 6f3f bf04 5dbe 3da0 b83e
000002d0: 3856 ef3e 6cab 2ebe 6123 a03d a4e8 2539
000002e0: 4fa9 2d3e 72ca 93be ba13 76be 6ee3 a2bc
000002f0: 19a4 94be dbae a0bd 791d 57be ed69 4c3c
00000300: 8f77 f1bd f156 28bc 0a8c 45be 1664 99be
00000310: fe12 8b3d 3867 2fbe 6c72 bebc 5ee9 22be
00000320: 3f6d a03e 5ff5 d73d 03a4 35be 0a75 37bd
00000330: c788 aebc 14bd 82bc e466 84be ec42 dabd
00000340: 8396 69bd 35cb 0d3d 578f 853f a535 aebd
00000350: 8eb3 85be 6238 863d dcce a9bd 66d0 fb3d
00000360: 3b75 4ebe ce63 3d3f 70d7 193e 8695 61be
00000370: 1694 c73d 07fd ab3e e660 413e b58e f6bc
00000380: aaf4 1dbf 2ba2 1f3f 7734 593f 9a0f 7ebe
00000390: 8821 d33d 9cb1 bebd d1e9 da3e 3dce aa3f
000003a0: 14ee 4ebe 2389 013f dcc3 123f 1173 52bd
000003b0: c966 14bd c208 b1be 5646 b93d b57d 733d
000003c0: 61ed db3c c05c 0d3e 2816 823f fd21 a33d
000003d0: 842d 2dbe 715d 98be bd44 c83e e933 2f3e
000003e0: 48b7 1fbe 214a 023f d206 22bd 00c7 87be
000003f0: 3101 c03b a809 493f d2d6 4bbe 5a63 5bbc

l1.bias f4 [128]
-0.16888525 -1.9261543 -1.5426239 -2.048948 -1.0675186 -0.58324933 -2.6658661 -2.0997138
-2.2033725 -1.9183772 -3.130901 -0.87695885 -0.37977582 0.21218446 -3.6807382 -1.5400178
-2.8892388 -0.6177819 -1.7962064 -0.118943095 -2.7494872 -1.3619181 -0.7556399 -1.2980882
-0.7245277 0.17820083 -3.5778022 -0.11369487 -0.6002338 -1.515525 -2.6656647 -1.412465
-2.1131268 -1.604932 -3.1237824 -1.7616454 -1.0210505 -0.2148275 -0.8030383 -0.55015147
-1.859605 -3.674761 0.26646295 -2.8230026 -0.4189088 -1.0553977 -0.79879135 -2.4376016
-0.43074343 -1.6622396 -4.1301217 -1.8651545 -2.123823 -2.6972265 -0.94278777 -1.3503767
0.077501535 0.23420806 -1.2915555 -3.0587168 -3.1755736 -0.18139216 -3.4927483 -0.6272151
-0.55999815 -1.4761685 -1.1716349 -2.6345694 -3.3732674 -0.8208727 -3.5606902 -3.560245
-0.44227013 -0.3700263 -0.07361509 -1.0085524 -1.518916 -1.847265 -0.8886396 -1.419197
-1.4916921 -0.5582524 -1.5717062 -0.6177111 -0.22843888 -2.8906162 -0.7639053 -3.098639
-0.2560337 -3.192491 -1.1756445 -1.3919679 -0.9002468 -0.50697905 -0.38362548 -0.142377
-3.794289 -1.9075841 -1.594111 -1.0397816 -1.4916223 -1.1919658 -1.234331 -3.6521213
-1.2524176 -4.187118 -1.708416 -1.1260711 -0.25823286 -4.2963033 -0.1162175 -1.9163258
-2.7765837 -0.58027923 -1.5281883 -1.013599 -3.0643494 0.058362115 -2.3691406 -2.7784498
-0.4360326 -2.0504081 -1.1684827 -2.1887617 -0.9660775 -1.755996 -1.9366419 -0.6823237
00000000: 41f0 2cbe 398c f6bf b374 c5bf f721 03c0
00000010: 73a4 88bf d44f 15bf 8d9d 2ac0 b661 06c0
00000020: 0e04 0dc0 628d f5bf af60 48c0 6080 60bf
00000030: fa71 c2be e246 593e 3791 6bc0 4e1f c5bf
00000040: 4ae9 38c0 f426 1ebf 17ea e5bf 7098 f3bd
00000050: 99f7 2fc0 5553 aebf 9e71 41bf c127 a6bf
00000060: a67a 39bf 477a 363e b6fa 64c0 dbd8 e8bd
00000070: eca8 19bf b9fc c1bf 409a 2ac0 a7cb b4bf
00000080: 783d 07c0 696e cdbf 0dec 47c0 997d e1bf
00000090: c8b1 82bf bdfb 5bbe eb93 4dbf bad6 0cbf
000000a0: 8907 eebf 492f 6bc0 d56d 883e 13ac 34c0
000000b0: 377b d6be 4617 87bf 977d 4cbf aa01 1cc0
000000c0: 678a dcbe 44c4 d4bf f529 84c0 62bd eebf
000000d0: b7ec 07c0 5c9f 2cc0 8a5a 71bf 25d9 acbf
000000e0: 20b9 9e3d 3dd4 6f3e b151 a5bf 04c2 43c0
000000f0: 993c 4bc0 debe 39be 3089 5fc0 2b91 20bf
00000100: 0a5c 0fbf 17f3 bcbf 22f8 95bf c99c 28c0
00000110: 9de3 57c0 b724 52bf 59e2 63c0 0edb 63c0
00000120: 3b71 e2be 1674 bdbe 82c3 96bd 3f18 81bf
00000130: d76b c2bf 2e73 ecbf e37d 63bf 3fa8 b5bf
00000140: c4ef bebf a1e9 0ebf ab2d c9bf 5122 1ebf
00000150: e2eb 69be dbff 38c0 4c8f 43bf 1a50 46c0
00000160: d916 83be c651 4cc0 857b 96bf 012c b2bf
00000170: 9376 66bf 61c9 01bf 8f6a c4be 47cb 11be
00000180: a2d5 72c0 b72b f4bf d40b ccbf 9017 85bf
00000190: 7bed bebf 5692 98bf 8ffe 9dbf 5bbc 69c0
000001a0: 384f a0bf dffc 85c0 60ad dabf 1923 90bf
000001b0: 1937 84be 517b 89c0 7103 eebd 2a4a f5bf
000001c0: 8cb3 31c0 2e8d 14bf ad9b c3bf 9dbd 81bf
000001d0: 4d1e 44c0 1d0d 6f3d 00a0 17c0 1fd2 31c0
000001e0: aa3f dfbe e339 03c0 d790 95bf ac14 0cc0
000001f0: db50 77bf 7ac4 e0bf e2e3 f7bf c4ac 2ebf

l2.weight f4 [128, 128]
-0.22475593 -0.28091085 -0.7217732 -0.36541823 0.12926053 -0.15037589 0.6510533 0.18203053
0.72612256 0.71485674 0.8317077 0.40337503 -1.5343696 -0.18736161 -0.20943114 0.0140042985
-0.15210342 -0.3401651 0.110121444 -0.43810698 1.0078655 -0.18962553 0.48883 -0.4549081
0.27896902 -0.08260266 0.13728817 0.4751477 0.611259 0.42624238 0.14279856 -1.545322
1.2644591 1.2071799 0.16165577 -0.14035246 -0.11897966 -0.46279782 0.63583046 -0.20546092
-0.12219191 0.12499836 -0.6575311 -0.03091129 -0.21921198 -0.76875657 0.47626802 0.49627146
-0.7723734 -0.14899427 0.108561866 -0.5011521 0.982862 -0.19841224 0.11960957 0.10033002
-0.4234102 -0.6124666 0.47553226 0.14084664 0.009461807 -0.5506806 0.48311496 -2.232999
1.6501571 -0.62950224 -0.017093109 -0.042006347 -0.43212384 0.64134884 0.38150707 -0.34777457
-0.29166254 -0.99413556 -0.29083082 -0.7763131 -0.07332572 0.5537457 -0.91437095 -0.89806026
0.22206567 -0.7845977 0.13645883 0.12274643 -0.5721292 0.10317878 -0.5797468 0.008254874
-0.31235832 0.43086255 0.44914195 0.5637372 -0.5148515 -0.60360885 -0.17313017 0.14747511
-0.19194847 -0.44701722 0.10729674 -1.889805 -0.030387577 -0.45967636 -0.4621688 0.6639068
0.34252682 0.67460585 -0.6234648 -1.0212517 -0.43260935 -0.24083968 -0.66582245 0.27464968
0.22359046 -0.942418 0.30598223 0.21359219 -0.16255811 0.11835514 0.60355467 -0.27172947
0.4390598 0.4633554 -0.69722205 0.26567394 1.6260993 -0.3138807 0.44897935 0.013739877
-0.064783245 -0.5959962 0.3921176 -0.48646626 -0.16096959 1.0840579 -0.54266286 0.436781
0.14610763 -0.1591465 0.41103494 -1.1954651 -0.119434 -0.78192496 -1.1183774 -0.03149632
0.5915503 -0.19203769 0.7303462 0.13494147 -0.70046926 -0.07258002 0.065313324 -0.255568
-0.084068164 -0.1534205 0.43594703 -0.4442344 -0.25270173 -0.0813658 -0.45198777 -0.97246486
0.1285645 -0.77709675 0.983377 -0.6018098 -1.3321667 -0.33659238 -0.65476257 -0.64341134
0.3108479 0.31131375 0.76471543 -0.24870211 0.06758902 -0.77537745 0.04876273 0.49150828
-0.17145541 -0.37489858 0.57786053 -0.67596257 0.1288785 -0.033632215 -0.014420214 0.25795132
1.3553019 0.4501822 -0.21238 0.52316755 -0.6815421 0.060265675 -0.87361336 -0.0131406095
0.25589296 0.11609928 1.0620636 0.26979128 0.32219484 -0.28176853 0.17820776 -0.30193
1.2894609 -0.48492965 -0.888941 -0.49940604 -0.53331226 -0.5709597 -0.806763 0.64419705
-0.00076802133 0.24113202 -0.0035276709 -1.0713929 -0.43523246 0.1150518 -0.09146621 -0.10051509
-0.3275907 0.27902278 -0.5593722 -0.5931692 1.4028846 0.0023100132 -0.8840645 0.30237582
0.23267286 -0.44212806 0.16364512 0.27482367 -0.68559766 0.20940953 0.04463949 0.43792787
0.08972757 -0.261772 -0.4736727 -0.17009501 -0.28806326 -0.17525907 -0.7135483 0.065488696
0.086860664 0.13849525 -1.2199214 0.4634279 -0.3126797 -0.02406364 -0.12657541 0.33655256
-0.0768923 -0.5707809 -0.21612135 1.5508912 -0.37346104 -0.66296816 0.16415337 0.13562289
00000000: 6b26 66be 8cd3 8fbe 21c6 38bf 1918 bbbe
00000010: df5c 043e 23fc 19be 6eab 263f 3666 3a3e
00000020: 2be3 393f da00 373f ccea 543f 2c87 ce3e
00000030: 3966 c4bf b9db 3fbe 1e75 56be 4972 653c
00000040: 00c1 1bbe 1f2a aebe 5a87 e13d 8f4f e0be
00000050: bd01 813f 322d 42be ed47 fa3e b7e9 e8be
00000060: 07d5 8e3e 952b a9bd 4595 0c3e 8f46 f33e
00000070: 787b 1c3f 713c da3e c939 123e 1ccd c5bf
00000080: ccd9 a13f df84 9a3f 1789 253e 8eb8 0fbe
00000090: 9cab f3bd d6f3 ecbe c9c5 223f 5964 52be
000000a0: c13f fabd 24ff ff3d f553 28bf ac39 fdbc
000000b0: 1b79 60be 3bcd 44bf 67d9 f33e 4b17 fe3e
000000c0: 43ba 45bf f491 18be af55 de3d 814b 00bf
000000d0: d89c 7b3f 942c 4bbe ddf5 f43d d379 cd3d
000000e0: 39c9 d8be 9cca 1cbf f778 f33e 1a3a 103e
000000f0: b205 1b3c 67f9 0cbf d85a f73e 75e9 0ec0
00000100: 5938 d33f 0f27 21bf d906 8cbc d90e 2cbd
00000110: 563f ddbe 702f 243f e554 c33e 820f b2be
00000120: cb54 95be ab7f 7ebf c7e7 94be 75bc 46bf
00000130: cc2b 96bd 47c2 0d3f 3714 6abf 47e7 65bf
00000140: 2f65 633e 65db 48bf ddbb 0b3e 7b62 fb3d
00000150: 0f77 12bf 654f d33d 496a 14bf 733f 073c
00000160: 6eed 9fbe 049a dc3e eff5 e53e 1551 103f
00000170: 4fcd 03bf 1c86 1abf 0949 31be b703 173e
00000180: 248e 44be 71df e4be 65be db3d 21e5 f1bf
00000190: 5eef f8bc b35a ebbe 64a1 ecbe ccf5 293f
000001a0: ad5f af3e f8b2 2c3f 649b 1fbf 60b8 82bf
000001b0: f97e ddbe ad9e 76be 5773 2abf e29e 8c3e
000001c0: e6f4 643e 4e42 71bf b4a9 9c3e e9b7 5a3e
000001d0: a275 26be 2e64 f23d 8f82 1a3f 2020 8bbe
000001e0: 72cc e03e eb3c ed3e 257d 32bf 6a06 883e
000001f0: 0624 d03f f9b4 a0be 9fe0 e53e 391d 613c
00000200: 14ad 84bd 3593 18bf a3c3 c83e 1b12 f9be
00000210: 36d5 24be 69c2 8a3f f4eb 0abf c2a1 df3e
00000220: 3d9d 153e 4df7 22be 2c73 d23e 0005 99bf
00000230: d099 f4bd 3c2c 48bf fe26 8fbf 4902 01bd
00000240: d76f 173f 87a5 44be f8f7 3a3f 192e 0a3e
00000250: f451 33bf d5a4 94bd fec2 853d cfd9 82be
00000260: ee2b acbd 431a 1dbe 7334 df3e b172 e3be
00000270: 1f62 81be 1da3 a6bd f16a e7be 75f3 78bf
00000280: 6aa6 033e d0ef 46bf 98be 7b3f 3510 1abf
00000290: 7084 aabf d655 acbe 859e 27bf 9bb6 24bf
000002a0: 7527 9f3e 8464 9f3e 64c4 433f c4ab 7ebe
000002b0: 1d6c 8a3d 237f 46bf 6ebb 473d f9a6 fb3e
000002c0: 0292 2fbe b5f2 bfbe abee 133f e20b 2dbf
000002d0: baf8 033e efc1 09bd c342 6cbc 3212 843e
000002e0: 887a ad3f 487e e63e 257a 59be 4fee 053f
000002f0: 8b79 2ebf 24d9 763d 20a5 5fbf b64b 57bc
00000300: 6704 833e 76c5 ed3d b3f1 873f 1522 8a3e
00000310: b9f6 a43e f743 90be 187c 363e 9296 9abe
00000320: 0e0d a53f b348 f8be a391 63bf 26b2 ffbe
00000330: 2787 08bf 6a2a 12bf 0588 4ebf 19ea 243f
00000340: 0a55 49ba 50eb 763e 7f30 67bb 6723 89bf
00000350: cad6 debe 47a0 eb3d a352 bbbd dbda cdbd
00000360: f8b9 a7be 13dc 8e3e 0433 0fbf f0d9 17bf
00000370: b991 b33f 9763 173b 0d52 62bf 01d1 9a3e
00000380: cb41 6e3e 9c5e e2be 9692 273e b0b5 8c3e
00000390: 5483 2fbf 746f 563e e6d7 363d 1538 e03e
000003a0: 17c3 b73d fb06 86be 3a85 f2be 632d 2ebe
000003b0: 077d 93be 1d77 33be 1aab 36bf f01e 863d
000003c0: 01e4 b13d b3d1 0d3e 6226 9cbf 6c46 ed3e
000003d0: 8e17 a0be 1c21 c5bc fc9c 01be 9e50 ac3e
000003e0: b679 9dbd b21e 12bf ea4e 5dbe 9a83 c63f
000003f0: 4936 bfbe 48b8 29bf d217 283e bae0 0a3e

l2.bias f4 [128]
-0.21004201 -0.17920816 -0.22329037 -1.3192538 -0.40450132 -0.92000765 -0.877432 -1.0888089
-0.38301554 -0.16133758 -0.65548015 -0.56953967 -0.5156293 -0.40457213 -1.2259009 -0.18236606
-0.56861365 -0.9594435 -0.6704354 -0.40502548 -1.0855223 -0.38881665 -0.10463911 -0.39109036
-0.56904274 -0.14080937 -0.43324116 -0.31174168 -0.9826037 -0.7583736 -0.32937473 -0.0009866066
-0.19818269 -0.14453956 -0.31990728 -0.071164235 -0.08278748 -0.12801091 -0.2285445 -0.19686949
-0.14130023 -0.08133761 -0.112991475 -0.050282296 -0.34657532 -0.9867439 -0.35100424 -0.49159306
-0.48363668 -0.093253955 -0.2147098 -1.0816792 -0.081255734 -0.91913444 -0.15038905 -0.56672406
-0.23831834 -1.1513289 -0.47973725 -0.107847676 -0.35633814 -0.9491704 -0.10211161 -0.16355547
-0.30029312 -0.7547811 -0.16148458 -0.35292295 -0.2965159 -0.81904864 -0.2619981 -0.9905489
-0.37223527 -0.08061893 -0.1301557 -0.1548804 -0.35251883 -0.31957754 -0.19286293 -0.12004217
-0.78276414 -0.1558526 -0.096658625 -1.2803386 -0.06283899 -1.2772778 -0.41924483 -0.34899297
-0.11084692 -0.24725768 -0.6108571 -0.2698023 -0.09986066 -0.56084776 -1.7243562 -0.36324272
-0.75595415 -0.33931205 -0.2974628 -0.27434918 -0.33783436 -0.6075188 -1.0960025 -0.4330669
-0.3082397 -0.09269088 -0.34365967 -0.14191516 -0.29439965 -0.87840754 -0.48251176 -0.5236003
-1.3025925 -1.3930005 -0.1954359 -0.1142558 -0.2727492 -1.3994763 -0.7807201 -0.3895543
-0.0541326 -0.13562141 -0.15518072 -0.8606077 -0.3293282 -0.18158296 -0.09909442 -0.1357137
00000000: 4115 57be 5882 37be 3ba6 64be 4fdd a8bf
00000010: cc1a cfbe 9f85 6bbf 629f 60bf 175e 8bbf
00000020: 9d1a c4be ae35 25be 8ccd 27bf 5acd 11bf
00000030: 4800 04bf 1424 cfbe 52ea 9cbf 2bbe 3abe
00000040: aa90 11bf 179e 75bf a8a1 2bbf 805f cfbe
00000050: 65f2 8abf fa12 c7be 084d d6bd ff3c c8be
00000060: c9ac 11bf 5530 10be c9d1 ddbe 9b9c 9fbe
00000070: eb8b 7bbf c624 42bf cea3 a8be 0651 81ba
00000080: 67f0 4abe 2e02 14be e3ca a3be 8ebe 91bd
00000090: 7b8c a9bd 4b15 03be 9207 6abe 2898 49be
000000a0: 02b1 10be 5594 a6bd 1368 e7bd cff4 4dbd
000000b0: 5272 b1be 409b 7cbf d4b6 b3be 16b2 fbbe
000000c0: 3a9f f7be eefb bebd e3dc 5bbe 7774 8abf
000000d0: 6869 a6bd 654c 6bbf 96ff 19be d414 11bf
000000e0: b909 74be bf5e 93bf 1fa0 f5be 3edf dcbd
000000f0: f471 b6be d5fc 72bf e41f d1bd 167b 27be
00000100: 05c0 99be 5639 41bf 375c 25be 51b2 b4be
00000110: efd0 97be 2cad 51bf 9d24 86be 9d94 7dbf
00000120: 9f95 bebe 8a1b a5bd 8947 05be f898 1ebe
00000130: 597d b4be ab9f a3be dc7d 45be abd8 f5bd
00000140: 3b63 48bf d397 1fbe f5f4 c5bd 23e2 a3bf
00000150: bab1 80bd d77d a3bf 42a7 d6be 35af b2be
00000160: b603 e3bd 1e31 7dbe 2261 1cbf 8723 8abe
00000170: bf83 ccbd b893 0fbf b4b7 dcbf f3fa b9be
00000180: 3686 41bf 4fba adbe 0b4d 98be 7f77 8cbe
00000190: a0f8 acbe 5a86 1bbf cf49 8cbf f2ba ddbe
000001a0: 98d1 9dbe b7d4 bdbd 29f4 afbe 3552 11be
000001b0: 8dbb 96be 51df 60bf c80b f7be ab0a 06bf
000001c0: 5abb a6bf d74d b2bf 5920 48be f2fe e9bd
000001d0: c8a5 8bbe 0a22 b3bf 46dd 47bf a973 c7be
000001e0: 25ba 5dbd 57e0 0abe b2e7 1ebe c950 5cbf
000001f0: b59d a8be e2f0 39be 04f2 cabd 88f8 0abe

l3.weight f4 [358, 128]
-4.095071 -2.7916334 -4.5547953 -2.6448016 -6.939653 -5.092651 -1.7414678 -5.693608
-0.23467197 0.0030671137 -4.4556503 -3.8467221 -5.5376806 -3.762178 -1.3014927 -1.4097022
-5.0856013 -2.3024108 -4.0105515 -0.062034924 -4.113459 -3.477478 -0.09615452 -6.0449424
-5.7281976 -6.3612857 -5.083382 -5.3486714 -2.2928002 -4.615226 -4.4686356 -4.181161
-6.9317317 -4.1233196 -5.1030927 -5.2603016 -0.10567951 -0.08780534 -0.07375637 -2.2580614
-3.6180265 -0.21544975 -0.018923808 -4.066058 -3.0465283 -4.3591995 -5.055196 -3.1528935
-3.6694183 -3.4760954 -3.3716202 -0.4258642 0.026784278 -4.6869645 -2.8826745 -5.4415693
-3.8266675 -1.6602366 -3.3489814 0.06314414 -4.178911 -2.9096556 -0.024974415 -7.7306504
-5.1644197 -4.857212 -0.1109315 -4.8605666 -0.07553739 -0.40550658 -4.6921997 -5.7013216
-3.2901049 -0.25532374 -0.020235123 -0.097428 -3.6411364 -4.628547 -5.2535086 -4.4504223
-2.5503554 0.0032359327 -0.013894923 -0.4709249 -3.0420654 -5.0660844 -5.0674973 -4.3765326
-3.6079886 -4.4869833 -4.2840757 -5.9264255 -0.06569536 -2.8343992 -6.6540084 -4.2304664
-0.15658772 -2.9087634 -0.124334015 -5.1253014 -4.9526052 -5.943528 -4.38391 -3.9813738
-3.5624146 -0.1954344 -1.6222578 -0.022837417 -5.4335594 -3.3893836 -5.0232873 -5.0741177
-3.951824 -2.9599826 -5.044565 -0.10151347 -5.7796087 -2.9170265 -2.3065948 -0.18742752
0.07087645 -5.0130444 -0.016912574 -2.6139681 -4.6413336 -2.138127 -4.3556695 -2.5188363
-5.2436438 -4.656228 -6.6909494 -2.74757 -7.8133316 -6.6506014 -2.0088532 -4.1535635
-0.36491218 0.059151195 -4.8727884 -3.7522807 -4.9313054 -5.6199746 -1.6712137 -4.125613
-6.416885 -1.6280242 -3.8712077 -0.33115357 -4.2706704 -3.084243 -0.064480156 -4.9444733
-6.427431 -4.2075167 -8.837113 -4.721724 -2.3976114 -3.891861 -3.8165352 -7.2233677
-9.462666 -5.020335 -6.587901 -5.099932 -0.020232946 0.059409395 -0.1658967 -1.7662263
-3.1252933 -0.055053648 -0.11389511 -2.8653648 -5.629899 -3.5715528 -3.8829856 -2.372157
-5.004498 -5.4128585 -3.3866296 -1.3918107 -0.046528272 -4.435674 -4.161091 -5.15794
-4.305806 -1.7484629 -3.871876 0.049843512 -3.5664577 -7.655197 -0.08681712 -5.4109797
-6.3261514 -4.336653 -0.010646259 -5.170703 -0.005244219 -0.9312788 -4.99621 -6.9500995
-2.5750222 -0.22773685 -0.08917958 -0.076665774 -2.283185 -8.044422 -7.5675035 -3.4436302
-3.0241354 -0.02454548 -0.153223 -1.1191351 -3.4572601 -4.926975 -4.319701 -5.700224
-7.5296082 -8.2792225 -7.6034875 -6.7996135 0.0076851044 -3.8683035 -5.6155305 -6.3350453
-0.63807154 -7.0328197 -0.07972398 -5.030372 -4.433987 -5.111079 -3.6187901 -5.6641173
-3.5864527 -0.31870708 -2.5845497 0.04411612 -4.5493546 -4.485485 -4.174113 -6.2348437
-3.5592375 -2.9936376 -5.1958504 -0.09147203 -6.757771 -3.0510762 -2.2225857 -0.33685288
0.03573986 -3.5372133 0.02152115 -2.1035078 -6.4398894 -3.8256624 -5.977647 -2.7547758
00000000: d20a 83c0 1faa 32c0 e2c0 91c0 6e44 29c0
00000010: a311 dec0 fff6 a2c0 6be8 debf 0932 b6c0
00000020: d94d 70be a101 493b b094 8ec0 b230 76c0
00000030: ae34 b1c0 86c7 70c0 5097 a6bf 1f71 b4bf
00000040: 3fbd a2c0 b35a 13c0 7056 80c0 5518 7ebd
00000050: 75a1 83c0 008f 5ec0 a9ec c4bd 2b70 c1c0
00000060: 654d b7c0 a78f cbc0 11ab a2c0 5128 abc0
00000070: 3dbd 12c0 eeaf 93c0 10ff 8ec0 12cc 85c0
00000080: bfd0 ddc0 3cf2 83c0 894c a3c0 6454 a8c0
00000090: 806e d8bd 49d3 b3bd 940d 97bd 1484 10c0
000000a0: bf8d 67c0 dc9e 5cbe 1a06 9bbc 261d 82c0
000000b0: 52fa 42c0 907e 8bc0 2ac4 a1c0 02c9 49c0
000000c0: c0d7 6ac0 5978 5ec0 a0c8 57c0 df0a dabe
000000d0: b46a db3c 9dfb 95c0 bd7d 38c0 5621 aec0
000000e0: 1fe8 74c0 a282 d4bf b655 56c0 b751 813d
000000f0: a4b9 85c0 cc37 3ac0 2597 ccbc 7d61 f7c0
00000100: ed42 a5c0 486e 9bc0 0e30 e3bd c389 9bc0
00000110: 59b3 9abd 8f9e cfbe 8026 96c0 3a71 b6c0
00000120: 1491 52c0 cbb9 82be 21c4 a5bc 5588 c7bd
00000130: 6108 69c0 0f1d 94c0 be1c a8c0 dc69 8ec0
00000140: 0639 23c0 f111 543b 88a7 63bc 121d f1be
00000150: 33b1 42c0 5d1d a2c0 f028 a2c0 8e0c 8cc0
00000160: 49e9 66c0 5e95 8fc0 2617 89c0 47a5 bdc0
00000170: 4a8b 86bd cc66 35c0 a3ed d4c0 fb5f 87c0
00000180: 8858 20be 2e29 3ac0 d5a2 febd 7802 a4c0
00000190: be7b 9ec0 6231 bec0 fe48 8cc0 d4ce 7ec0
000001a0: 9afe 63c0 f51f 48be 25a6 cfbf 8915 bbbc
000001b0: b8df adc0 a9eb 58c0 c5be a0c0 2c5f a2c0
000001c0: afea 7cc0 5b70 3dc0 146d a1c0 4be6 cfbd
000001d0: 8ef2 b8c0 90b0 3ac0 409f 13c0 00ed 3fbe
000001e0: ac27 913d dc6a a0c0 3d8c 8abc 414b 27c0
000001f0: ce85 94c0 13d7 08c0 a561 8bc0 9d34 21c0
00000200: eecb a7c0 d2ff 94c0 421c d6c0 30d8 2fc0
00000210: d006 fac0 bad1 d4c0 0d91 00c0 fee9 84c0
00000220: c5d5 babe 8648 723d e2ed 9bc0 5e25 70c0
00000230: 41cd 9dc0 d5d6 b3c0 55ea d5bf 0605 84c0
00000240: 1f57 cdc0 1963 d0bf dec1 77c0 f68c a9be
00000250: 55a9 88c0 3d64 45c0 2c0e 84bd 2039 9ec0
00000260: 84ad cdc0 faa3 86c0 d164 0dc1 5d18 97c0
00000270: 7772 19c0 4014 79c0 1d42 74c0 d425 e7c0
00000280: 1467 17c1 96a6 a0c0 16d0 d2c0 a532 a3c0
00000290: 90bf a5bc 4457 733d d3e0 29be b413 e2bf
000002a0: ce04 48c0 ef7f 61bd d741 e9bd 2362 37c0
000002b0: 2228 b4c0 5294 64c0 d682 78c0 6cd1 17c0
000002c0: d924 a0c0 2336 adc0 8abe 58c0 da26 b2bf
000002d0: 6e94 3ebd 0bf1 8dc0 a827 85c0 d80d a5c0
000002e0: 2ac9 89c0 a2cd dfbf d1cc 77c0 b628 4c3d
000002f0: d840 64c0 60f7 f4c0 2dcd b1bd bf26 adc0
00000300: d56f cac0 ddc5 8ac0 a66d 2ebc 6676 a5c0
00000310: b3d7 abbb 4a68 6ebf f4e0 9fc0 3767 dec0
00000320: 2acd 24c0 d933 69be c9a3 b6bd f202 9dbd
00000330: b41f 12c0 f4b5 00c1 fd28 f2c0 7064 5cc0
00000340: 6f8b 41c0 9a13 c9bc 7de6 1cbe d23f 8fbf
00000350: c043 5dc0 c7a9 9dc0 fe3a 8ac0 3c68 b6c0
00000360: 8df2 f0c0 b277 04c1 c54f f3c0 6f96 d9c0
00000370: 54d3 fb3b 4992 77c0 6db2 b3c0 b1b8 cac0
00000380: a858 23bf dc0c e1c0 5346 a3bd cff8 a0c0
00000390: 39e3 8dc0 f68d a3c0 429a 67c0 7340 b5c0
000003a0: 7188 65c0 932d a3be 4369 25c0 1bb3 343d
000003b0: 5094 91c0 1889 8fc0 5592 85c0 d783 c7c0
000003c0: 8cca 63c0 c297 3fc0 6844 a6c0 b055 bbbd
000003d0: a93f d8c0 d544 43c0 d83e 0ec0 fb77 acbe
000003e0: f663 123d b461 62c0 1f4d b03c df9f 06c0
000003f0: 9313 cec0 a7d7 74c0 e248 bfc0 3f4e 30c0

l3.bias f4 [358]
-26.385561 -24.319859 -25.948858 -23.479763 -25.692518 -25.37519 -25.970146 -2.3555398
-25.299128 -22.98591 -25.641777 -24.924166 -25.825798 -2.3833768 -25.087399 -23.79967
-24.294264 -25.338985 -23.339882 -24.988005 -25.714888 -25.564768 -25.486988 -25.411556
-24.353943 -24.928726 -24.732433 -26.365883 -26.2545 -24.84931 -24.646132 -26.066172
-25.636131 -24.687658 -2.3401964 -25.160843 -25.861458 -24.930447 -23.824005 -25.387253
-0.39066985 -26.457548 -0.34204224 -26.133856 -25.002537 -25.457153 -26.095356 -26.012413
-25.562344 -3.126802 -1.9729793 -24.070879 -1.3571545 -24.128609 -24.780088 -0.39523804
-24.26231 -0.41554666 -25.859291 -25.559498 -25.921444 -1.1704383 -25.691597 -24.419796
-26.138304 -0.045533437 -25.115755 -25.663433 -25.440237 -24.593222 -0.26347116 -25.393646
-24.86305 -22.82472 -25.254805 -0.8758919 -25.289528 -23.564964 -26.235254 -25.757586
-24.047453 -1.1163799 -1.3686538 -26.389193 -26.062103 -25.998034 -0.0056822123 -0.0012864681
-26.444553 -26.039803 -1.6681038 -2.002913 -26.000765 -2.1304247 -23.382805 -25.722126
-24.6294 -24.154963 -26.197464 -26.010277 -25.962679 -25.627909 -26.140844 -25.167583
-2.0632482 -24.611944 -24.450098 -0.095481075 -25.261976 -0.036437485 -1.175311 -25.35847
-24.12137 -24.800007 -24.742266 -23.361862 -25.295973 -1.3551581 -1.2768573 -23.911942
-24.86425 -3.063999 -23.959167 -4.067787 -25.131807 -1.3728535 -1.4046183 -25.444244
-22.537397 -25.346699 -23.894894 -0.2687583 -4.5295477 -2.17497 -1.7599905 -24.95692
-25.722006 0.15929261 -0.13566875 -0.96525824 -24.342323 -0.17449749 -0.06758238 -2.6454458
-24.265903 -2.00165 -2.3147366 -22.924692 -3.210773 -1.5662348 -25.111738 -0.10090113
0.03521344 -23.613907 -3.4311452 -3.4358706 -24.44545 -0.09513543 -25.51117 -3.0922143
-2.4230335 -0.11324768 -2.4338179 0.19641593 -1.938576 -23.528229 -24.854053 -3.489055
-0.09927748 -0.08297784 -1.431389 -0.33991534 0.11189121 -1.2418439 -1.2207351 -0.23779137
-0.2562203 -25.123857 -0.0033776928 -24.185566 -1.6483495 -3.6269267 -24.374378 -3.4081473
-24.751152 -25.097265 -24.90862 -24.466082 -2.512248 -25.108122 -0.41194603 -23.911526
-0.10684503 -2.759248 -3.0228539 -2.5504549 -2.657991 -23.29363 -1.0585166 -23.979103
-0.949154 -1.1939435 -2.180389 -3.632258 -2.4734328 -3.3066938 -4.646426 0.2045751
-1.2686199 -26.075916 -24.378777 -25.654358 -25.320755 -25.639147 -24.972836 0.17070724
-25.678455 -25.267246 -4.139244 0.1498411 -24.42112 -2.9837768 -2.6282609 -1.9474103
-24.460821 -2.3550272 -25.298027 -25.262989 -25.633373 -0.15670922 -3.4153738 -25.567078
-0.099398576 -24.462566 -1.4293443 -1.7435334 -0.277219 -2.220239 -0.1261698 -0.2217386
-0.08296287 -25.825243 -0.16876075 -0.17014328 -3.6311643 -1.4243944 -2.166537 -1.9807112
-4.0548563 -1.7204746 -2.3237028 -1.417422 -25.629679 -2.6178992 -24.340965 -4.0740557
00000000: a115 d3c1 128f c2c1 4397 cfc1 8ed6 bbc1
00000010: 478a cdc1 6400 cbc1 dcc2 cfc1 2ac1 16c0
00000020: 9d64 cac1 25e3 b7c1 5c22 cdc1 b164 c7c1
00000030: 3c9b cec1 3f89 18c0 feb2 c8c1 b965 bec1
00000040: a75a c2c1 3eb6 cac1 14b8 bac1 6fe7 c7c1
00000050: 17b8 cdc1 a584 ccc1 5ae5 cbc1 de4a cbc1
00000060: e0d4 c2c1 086e c7c1 06dc c5c1 54ed d2c1
00000070: 3709 d2c1 63cb c6c1 472b c5c1 8587 d0c1
00000080: cc16 cdc1 5380 c5c1 c7c5 15c0 6849 c9c1
00000090: 44e4 cec1 8e71 c7c1 9097 bec1 1819 cbc1
000000a0: e105 c8be 0fa9 d3c1 2920 afbe 2312 d1c1
000000b0: 3205 c8c1 40a8 cbc1 4ac3 d0c1 6c19 d0c1
000000c0: ae7f ccc1 861d 48c0 968a fcbf 2991 c0c1
000000d0: 3db7 adbf 6407 c1c1 9f3d c6c1 a45c cabe
000000e0: 3619 c2c1 88c2 d4be d4df cec1 da79 ccc1
000000f0: 1e5f cfc1 ecd0 95bf 6488 cdc1 be5b c3c1
00000100: 3f1b d1c1 4581 3abd 11ed c8c1 b64e cdc1
00000110: 9b85 cbc1 ebbe c4c1 b1e5 86be 3026 cbc1
00000120: 87e7 c6c1 0799 b6c1 d709 cac1 743a 60bf
00000130: f450 cac1 0c85 bcc1 cde1 d1c1 890f cec1
00000140: 2f61 c0c1 89e5 8ebf 0c30 afbf 111d d3c1
00000150: 307f d0c1 f9fb cfc1 da31 babb b59e a8ba
00000160: 728e d3c1 8451 d0c1 6d84 d5bf ba2f 00c0
00000170: 9101 d0c1 e158 08c0 fc0f bbc1 eac6 cdc1
00000180: 0309 c5c1 5d3d c1c1 6894 d1c1 0c15 d0c1
00000190: 91b3 cfc1 f505 cdc1 7320 d1c1 3657 c9c1
000001a0: 420c 04c0 43e5 c4c1 cd99 c3c1 958b c3bd
000001b0: 8718 cac1 793f 15bd 9770 96bf 26de cac1
000001c0: 91f8 c0c1 6a66 c6c1 29f0 c5c1 18e5 bac1
000001d0: 275e cac1 d275 adbf 0f70 a3bf a84b bfc1
000001e0: fce9 c6c1 8f18 44c0 60ac bfc1 502b 82c0
000001f0: f10d c9c1 aab9 afbf 88ca b3bf d08d cbc1
00000200: 974c b4c1 0ac6 cac1 be28 bfc1 b09a 89be
00000210: 0ef2 90c0 b532 0bc0 5e47 e1bf c6a7 c7c1
00000220: abc6 cdc1 9a1d 233e c0ec 0abe 2a1b 77bf
00000230: 14bd c2c1 78af 32be a168 8abd fc4e 29c0
00000240: 9220 c2c1 091b 00c0 a524 14c0 c565 b7c1
00000250: 4e7d 4dc0 627a c8bf d7e4 c8c1 40a5 cebd
00000260: f83b 103d 48e9 bcc1 e297 5bc0 4ee5 5bc0
00000270: 4890 c3c1 5dd6 c2bd e016 ccc1 d7e6 45c0
00000280: fb12 1bc0 66ee e7bd acc3 1bc0 4221 493e
00000290: 4223 f8bf d039 bcc1 1ad5 c6c1 ad4c 5fc0
000002a0: fe51 cbbd 49f0 a9bd c137 b7bf 6209 aebe
000002b0: 3827 e53d bef4 9ebf 0c41 9cbf 957f 73be
000002c0: 4f2f 83be a9fd c8c1 485c 5dbb 0a7c c1c1
000002d0: 1efd d2bf 911f 68c0 bafe c2c1 161f 5ac0
000002e0: 5c02 c6c1 33c7 c8c1 db44 c7c1 89ba c3c1
000002f0: acc8 20c0 6fdd c8c1 97ea d2be ce4a bfc1
00000300: 91d1 dabd 8597 30c0 7076 41c0 a73a 23c0
00000310: 861c 2ac0 5b59 bac1 797d 87bf 34d5 bfc1
00000320: c2fb 72bf 24d3 98bf 7e8b 0bc0 ea76 68c0
00000330: b94c 1ec0 dfa0 53c0 86af 94c0 237c 513e
00000340: 2362 a2bf 7a9b d0c1 bc07 c3c1 203c cdc1
00000350: e890 cac1 f91c cdc1 5ec8 c7c1 e1cd 2e3e
00000360: 7a6d cdc1 5223 cac1 b074 84c0 f26f 193e
00000370: 745e c3c1 33f6 3ec0 6d35 28c0 be44 f9bf
00000380: c3af c3c1 c4b8 16c0 5c62 cac1 9a1a cac1
00000390: 2611 cdc1 6278 20be 7c95 5ac0 6089 ccc1
000003a0: 7b91 cbbd 56b3 c3c1 c1f4 b6bf 1a2c dfbf
000003b0: a6ef 8dbe 6518 0ec0 a832 01be 720f 63be
000003c0: 70e8 a9bd 199a cec1 9ecf 2cbe 0a3a 2ebe
000003d0: ff64 68c0 8e52 b6bf 8ba8 0ac0 f287 fdbf
000003e0: 62c1 81c0 8338 dcbf 8cb7 14c0 166e b5bf
000003f0: 9509 cdc1 a98b 27c0 4cba c2c1 aa5e 82c0
