chatbot_model.pth (torch, 981316 bytes, 6 tensors)

l1.weight f4 [128, 1359]
000000 43 98 43 be e8 5b 08 3e 47 bf 39 3e c4 2f cb bc
       -0.19101052 0.1331631 0.18139373 -0.02480305
000010 dc 2c 2d 3c 8b 7e 4f be 06 f8 0c 3e 29 17 14 3f
       0.010569777 -0.20263116 0.13766488 0.5784784
000020 10 d7 15 3f 60 f2 86 3e 70 59 14 3e db 21 86 3d
       0.58531284 0.26356792 0.14487243 0.06549426
000030 49 67 40 3f 54 04 67 be 70 fd 05 3f 5c a0 a7 bd
       0.751576 -0.22560245 0.5233984 -0.08184883
000040 78 6d 9e 3e 48 99 af bd 6d 34 3c bd 04 0c 06 3f
       0.30942893 -0.08574158 -0.045948435 0.52362084
000050 d9 0a 0e bd a3 bd cc 3b a6 79 6a bd fb 21 30 be
       -0.034678314 0.0062481924 -0.05724492 -0.17200463
000060 df 0c 51 bc 3f 04 f7 bd b8 84 bb 3d 2e ab 1f 3e
       -0.012759416 -0.12061357 0.091561735 0.15592644
000070 e5 c9 38 3f 38 fb 31 be 01 c5 e9 bc 1a 9e d8 3c
       0.72183067 -0.17380989 -0.028536322 0.026442576
000080 e7 1d 1b 3e ca ca 0a be 82 b2 97 3e eb cf e4 bc
       0.15148126 -0.1355392 0.29628378 -0.027931174
000090 5d 6f bb bc cb 76 00 3e 91 98 3d 3f 40 21 50 be
       -0.02288025 0.12545316 0.7406092 -0.20325184
0000a0 e6 ed 08 3f 87 d4 92 3a d9 f1 8c bc 53 2c 5f be
       0.53488004 0.0011202254 -0.017205166 -0.21794252
0000b0 f9 7f d1 3d 39 14 58 3f fd ea 90 3e 8a ff da be
       0.10229487 0.8440586 0.28304282 -0.42773086
0000c0 1f c1 c0 3e 1b 6b 20 3f 22 85 cb 3e 98 ab 12 3f
       0.3764734 0.6266343 0.3975001 0.5729308
0000d0 cb 22 f8 3e 3f 3c 3f 3f 5c 7f d3 bd 1a d6 86 bb
       0.48464045 0.74701303 -0.10327026 -0.0041148784
0000e0 26 b7 80 3e c2 a8 aa 3e 20 2e 52 3d a6 ef 32 be
       0.2513973 0.33331877 0.05131352 -0.17474231
0000f0 bd 99 15 3f 5b 64 7d be f6 31 d1 be 0e 3a f8 be
       0.5843771 -0.24745314 -0.4085843 -0.48481792
000100 73 88 23 3f db 34 d9 3f d1 00 30 bf 00 80 ae bd
       0.6388008 1.6969255 -0.68751246 -0.08520508
000110 8e ba 03 be 0a 26 5e be c7 41 70 3c 6f 5a ab 3f
       -0.12864134 -0.21694198 0.01466412 1.3386973
000120 a5 09 ce bd 96 74 02 3f 16 91 99 3e ab 1f 9b 3f
       -0.10060433 0.50959146 0.29993504 1.2119039
000130 d3 8c a3 be a2 a5 d2 be ef 02 33 3f 63 b4 e4 bc
       -0.31943378 -0.41141993 0.6992635 -0.027918046
000140 cd e7 13 3f 31 a5 13 bd 57 0d e9 3d 87 f6 9c 3d
       0.57775575 -0.03604621 0.113794975 0.07664209
000150 23 59 b0 be 99 07 1a be 8e 7c ed 3e 1a 60 85 3f
       -0.34443006 -0.15041961 0.4638409 1.0419953
000160 89 c1 9b 3f 90 b5 45 3e ea d2 ab be 42 ac 4f bd
       1.2168437 0.19307542 -0.33559352 -0.050701387
000170 52 33 ff bd b6 72 6b bd 3b 9f 2d be 95 ee 90 3e
       -0.124609604 -0.057482444 -0.16955273 0.28307024
000180 47 ea d5 bc 3f a0 74 3e 91 56 b9 3e 06 49 82 be
       -0.026112689 0.23889254 0.36198857 -0.25446337
000190 4a a4 d0 be 9e 9f 72 be 2c 40 bd 3f 6d 96 e1 3d
       -0.40750343 -0.23693702 1.4785209 0.110150196
0001a0 4b 1f 41 bf 1f cf e5 be 25 58 92 be 70 e2 94 be
       -0.75438374 -0.44884583 -0.28582874 -0.29079008
0001b0 e5 b5 94 bd e4 80 21 be 26 d8 de 3e 8d d0 f6 bd
       -0.07261256 -0.15771824 0.43524283 -0.12051497
0001c0 c0 57 80 bd 5c 8e 0b bc 8d d1 5d 3f e9 c7 27 3c
       -0.06266737 -0.008517828 0.86647874 0.010240533
0001d0 f2 20 45 3e af 72 81 bd 7a 43 bd be 7f 0a f0 bd
       0.19250849 -0.06320702 -0.36965543 -0.11720752
0001e0 3e 04 16 3f 06 cc df 3e 99 9a 70 3e ef 05 54 3f
       0.58600223 0.43710345 0.23496474 0.82821554
0001f0 40 46 17 3d 04 1f d1 be d0 da 01 bd 11 44 23 be
       0.03693223 -0.40843976 -0.031702816 -0.15943934
000200 0f a7 5b 3e 66 fb 82 3f 3f 90 ab bd 0b e1 33 3e
       0.21450447 1.0232971 -0.08377122 0.17566316
000210 89 ad 2c be 7f 1a 08 3e fe 96 1f 3d 4d 48 01 bf
       -0.16863073 0.13291357 0.038962357 -0.5050095
000220 69 7c 78 be 33 d2 c9 be cb 11 75 be f9 85 b3 3d
       -0.24266209 -0.39418182 -0.23932569 0.08765788
000230 58 dc ad be 9e 5d 6d be 0d e8 0e be e6 38 9b 3d
       -0.3395717 -0.23180243 -0.13955708 0.07579212
000240 39 56 38 be 73 78 75 3e 73 31 d9 3e b4 81 65 be
       -0.18001641 0.23971729 0.4242054 -0.22412759
000250 e9 c3 2d 3f a1 af 18 3e 70 f6 28 3e f6 37 41 3f
       0.6787706 0.14910747 0.16500258 0.75476015
000260 b8 5d c2 3e ea 1f 09 3e 42 61 12 be 35 4d b2 be
       0.37962127 0.1339108 -0.14294913 -0.3482453
000270 76 71 71 3f 58 22 06 bf ab 49 df bb 87 73 f4 3e
       0.9431375 -0.52396154 -0.006814202 0.4774439
000280 b5 0e 53 be 60 36 60 bd 13 b2 3d be 26 b2 0d be
       -0.20611079 -0.054739356 -0.18524961 -0.1383749
000290 01 03 c9 3d ed 9e 69 3f 4f dc 97 3f 28 6b a2 3e
       0.09815026 0.91258126 1.1864108 0.3172238
0002a0 10 98 2f 3d e4 fc 3c be 18 1c 58 bd a0 11 67 be
       0.042869627 -0.18455845 -0.052761167 -0.22565317
0002b0 18 37 c6 bd 9f 90 ca bd 7f 00 38 3f 18 eb a3 3e
       -0.09678477 -0.098908655 0.71875757 0.320153
0002c0 5b 30 3e 3f 7c 0a 81 3e 47 f8 9d 3d 84 9c a1 3e
       0.74292535 0.2520331 0.07713371 0.31564724
0002d0 b2 68 b5 3e f5 bb 50 3f d4 55 66 3d 55 f8 55 bd
       0.3543144 0.815368 0.056234196 -0.05223878
0002e0 30 c6 14 3f ad 40 b3 be af 14 16 3c 59 5e ca 3c
       0.5811491 -0.3501028 0.009160205 0.024703192
0002f0 92 da 4b 3e d2 e0 91 be ec ba 00 3f 0c 8b 9b 3e
       0.19907597 -0.28491837 0.5028522 0.30379522
000300 b4 1f 4e bd d2 ff 1d 3f d9 b4 af 3f aa 33 8d bc
       -0.050323203 0.61718476 1.3727065 -0.01723655
000310 23 33 9c bd 3a 6f da 3e 52 5b b1 3e 5f 35 57 3e
       -0.07626941 0.42662984 0.34639984 0.21016453
000320 38 ef 1b 3e 6d e9 03 bf e7 1f 80 be 6f eb 00 be
       0.15227973 -0.51528054 -0.2502434 -0.12589811
000330 90 7f e3 bd 1a 08 a4 3e 2f 6d a7 be ff a1 cb 3e
       -0.11108315 0.3203743 -0.32700488 0.3977203
000340 a9 31 4f bd 62 db c2 bd 65 3e 63 be bc af 97 3f
       -0.05058447 -0.095145 -0.2219177 1.1850505
000350 63 5a 87 be 05 ed 18 be e5 d4 d2 3e 39 5c 0e 3e
       -0.26436147 -0.14934166 0.4117805 0.13902368
000360 3d 89 8f 3f ce ff 0e 3f c6 46 8d 3f 32 aa 2b 3f
       1.1213757 0.55859077 1.1037223 0.6705657
000370 db 07 c7 3e a6 d4 06 be d0 57 f7 3d 75 42 f8 be
       0.3887318 -0.13167056 0.12077296 -0.48488203
000380 31 e0 b4 3f 07 c1 b1 3e 33 1c 1e 3f a3 85 62 3e
       1.4130918 0.3471758 0.6176178 0.22121291
000390 5c 60 f7 3e 67 87 a7 3e 5a 62 98 3e 81 11 b8 3e
       0.48315704 0.3272049 0.29762536 0.35950854
0003a0 fb 8f cc 3e 2d 91 86 3d e2 c6 ab be 2d ba 8d be
       0.39953598 0.06570659 -0.33550173 -0.27681103
0003b0 4e 62 c4 be a2 7e c1 3e 88 d9 01 be c5 62 df bc
       -0.3835625 0.37791926 -0.12680638 -0.027268777
0003c0 e6 37 3c bd 32 d6 0e bd 23 ee f4 bd 19 5b 89 3f
       -0.045951746 -0.03487224 -0.119594835 1.0730926
0003d0 b6 ce 10 bf e2 b9 b0 bd 11 0b c0 bd ab ff c7 3d
       -0.56565416 -0.08629204 -0.09377111 0.09765562
0003e0 b5 da b2 bd e1 09 0a 3f 7f 7e 09 be 10 8e 12 be
       -0.08733121 0.53921324 -0.1342716 -0.14312005
0003f0 da f7 bb 3e f5 fc 07 bf a6 3b d1 3e 2f 14 16 3f
       0.36712533 -0.53120357 0.4086582 0.5862455

l1.bias f4 [128]
000000 a7 67 35 bf ca 88 62 bf 65 76 39 c0 29 55 4d bf
       -0.70861286 -0.88489974 -2.8978512 -0.8020807
000010 33 9a b5 bf 84 5a 55 bf b4 66 87 bf 6d 36 39 bf
       -1.4187683 -0.8334124 -1.0578218 -0.7234867
000020 42 bf 79 bf bb 67 a2 3d fd aa 05 c0 aa 3c 22 bf
       -0.9755746 0.07929941 -2.0885613 -0.63373816
000030 c0 72 a3 bf 1b c3 48 bf dc 2a 9c bf 2a 02 17 c0
       -1.2769394 -0.7842271 -1.220058 -2.359507
000040 ba 52 48 c0 77 71 9a bf 55 d1 66 bf 82 be b0 bf
       -3.1300492 -1.2065877 -0.90163165 -1.3808138
000050 15 dc 50 bf 9a f3 01 c0 0c d9 55 bf ff 97 73 bf
       -0.8158582 -2.0304933 -0.8353431 -0.951538
000060 04 ba 3b c0 47 74 c7 be 38 50 86 bf d1 4e f4 bf
       -2.9332285 -0.389559 -1.0493231 -1.9086553
000070 c9 41 ac bf 61 eb 27 bf 24 8d 43 c0 1f c1 33 c0
       -1.3457576 -0.65593535 -3.0554895 -2.8086622
000080 5c ce 69 c0 9e a8 0c bf ec 14 ff bf cf 4d 0b bf
       -3.6532202 -0.5494479 -1.992826 -0.544156
000090 83 3d e7 bf 32 51 c9 be 3c 81 e9 be 63 53 3f bf
       -1.8065647 -0.3931976 -0.4560641 -0.74736613
0000a0 60 e3 f0 bf 8f 8f c0 be 18 c6 4f bf e1 81 27 bf
       -1.8819389 -0.37609527 -0.8116164 -0.65432554
0000b0 a9 24 5f c0 27 f5 11 c0 2d b0 88 be 77 94 90 be
       -3.4866126 -2.280588 -0.2669691 -0.2823827
0000c0 a6 4b ab bf 12 2f c3 bf 17 fa ae bf 97 99 bf bf
       -1.3382461 -1.524874 -1.3670071 -1.4968747
0000d0 72 8d a2 bf f6 22 97 bf a9 01 f5 bf a2 69 b1 bf
       -1.2699416 -1.1807544 -1.9141132 -1.3860362
0000e0 78 26 3f c0 00 b1 90 bf 27 4a 36 c0 18 f4 e3 bf
       -2.986723 -1.1304016 -2.848276 -1.7808867
0000f0 da 84 04 c0 da ea 00 c0 39 24 ad 3b 0b 5b cf bf
       -2.0706086 -2.0143342 0.005283859 -1.6199659
000100 2c f9 a8 bf d6 18 2c bf 9b b7 ec bf d8 73 2f bf
       -1.3201041 -0.67225397 -1.8493532 -0.6853614
000110 af 55 06 c0 63 d5 10 c0 ec f4 98 bf 7f f5 1c c0
       -2.0989797 -2.263024 -1.1949744 -2.452484
000120 9a 40 42 bf 64 ea d8 bf 74 ce f3 bf 13 b2 26 bf
       -0.75879824 -1.694653 -1.904738 -0.6511547
000130 6a 89 02 bf 0c 4e 9a bf 4e 39 d2 bf cf 8c 68 bf
       -0.5099093 -1.2055068 -1.6423738 -0.90839857
000140 d6 98 f4 bd 8c 34 66 bf 7c 5c 87 be fc 4e d1 3e
       -0.11943214 -0.8992393 -0.26437747 0.40880573
000150 d5 f1 d1 be a8 68 31 c0 a4 fc 02 bf a6 d3 2d bf
       -0.41004816 -2.7720127 -0.5116675 -0.67901075
000160 5b 45 7b bf bc f3 08 c0 c8 c6 52 c0 0b 22 84 bf
       -0.98152703 -2.1398764 -3.2933826 -1.0322889
000170 91 cb c1 be fd fa f6 bf 41 42 ef bf 5c cb 2a bf
       -0.3785062 -1.9295346 -1.8692094 -0.6671655
000180 30 94 c0 be b2 45 5c 3e fa 33 48 c0 fd ab 17 be
       -0.37613058 0.21510962 -3.1281724 -0.14811702
000190 73 87 f4 be 8f af e1 bf e4 d2 11 3e 85 83 1a c0
       -0.4775959 -1.7631701 0.14240605 -2.4142773
0001a0 02 32 f4 be 84 25 cc bf 83 9c fa bf 0b da 1a c0
       -0.47694403 -1.5948949 -1.9579014 -2.4195583
0001b0 3c 8c 01 c0 08 e3 51 bf 9b 78 06 c0 e7 c2 2f bf
       -2.0241842 -0.8198705 -2.1011112 -0.6865677
0001c0 54 2a 8c bf 2c 5b 0d c0 f9 cc 54 bf 89 08 fa bf
       -1.0950418 -2.2086897 -0.83125263 -1.9533855
0001d0 2a 49 30 c0 da dc 86 bf 0b f6 98 bf da 32 0d c0
       -2.7544656 -1.0536149 -1.1950086 -2.2062287
0001e0 79 40 b6 bf 3e cd 1a c0 1f fd 64 bf 1f 98 fc bf
       -1.4238425 -2.418777 -0.8944873 -1.9733924
0001f0 d2 10 eb bf 38 44 af bf 8a 7f e3 3d d0 06 f1 bf
       -1.8364508 -1.3692694 0.111083105 -1.8830204

l2.weight f4 [128, 128]
000000 f1 bf 38 3f 2a 2e bd 3f 81 0c af 3f f8 0d 02 3f
       0.7216788 1.4779713 1.3675691 0.50802565
000010 02 fb 2e 3f be 58 57 3f 30 3c 4a 3f 39 72 37 3f
       0.6835176 0.84119785 0.7899809 0.71658665
000020 cd 88 bd 3f 8f 43 90 3f d5 0b d4 3f 95 6b 32 3f
       1.4807373 1.1270617 1.6566111 0.6969541
000030 d6 d2 2a 3f bf ee 25 3f 08 7c d8 3f be b7 cf 3f
       0.6672796 0.6481742 1.6912851 1.6227949
000040 af cc aa 3f 2d 65 99 3f bb 3b 7a 3f a7 1b b9 3f
       1.3343714 1.1984001 0.9774739 1.4461564
000050 7c e3 a2 3f 2a 78 85 3f b1 ab 5d 3f db fd 6f 3f
       1.2725673 1.0427296 0.86590105 0.9374673
000060 96 ed 81 3f dc 58 2b 3e 6c be 6a 3f df 0f 94 3f
       1.015063 0.16733116 0.9169681 1.1567343
000070 07 e7 61 3f 1f f2 e8 3f c7 4c 8b 3f 95 cd 82 3f
       0.88243145 1.819889 1.0882806 1.0218989
000080 25 75 97 3f 88 87 82 3f c8 c8 b7 3f 75 a9 59 bd
       1.1832625 1.0197611 1.4358149 -0.053140122
000090 be f0 8c 3f b9 da 87 3e 6c 4c 5d 3f 6f 1a 9e 3f
       1.1010969 0.2653406 0.86444736 1.2351817
0000a0 91 06 f2 3f 7d e6 77 3f f5 de 01 3e 18 e8 6d 3f
       1.8908254 0.9683607 0.12682708 0.9293227
0000b0 16 1c fd 3f 8f 4f c8 3f 8c 59 32 3f 6c e1 f6 3e
       1.9774196 1.5649279 0.6966789 0.48218858
0000c0 d3 91 af 3f 61 bc d4 3f f8 1a c8 3f 3f 42 e0 3f
       1.3716377 1.6619989 1.563323 1.7520217
0000d0 69 81 8a 3f 85 6e ef 3e 42 21 9b 3f 9f 18 9a 3f
       1.0820743 0.46764007 1.2119524 1.2038764
0000e0 de e2 9f 3f c7 cf ca 3f 43 20 65 3f 96 81 cb 3f
       1.2491109 1.5844659 0.8950235 1.5898921
0000f0 a5 d5 2a 3f a3 f5 d9 3f 60 86 a9 be 22 b8 c6 3f
       0.66732246 1.7028087 -0.33110332 1.5524943
000100 47 f4 b6 3f c2 5d cc 3f 35 63 c9 3f 97 1e a7 3f
       1.4293298 1.5966113 1.57334 1.305621
000110 3c 6c 7f 3f b0 9a 93 3f 25 0e f2 3f fc 61 d0 3f
       0.9977453 1.1531582 1.8910567 1.6279902
000120 ed 85 41 3f d9 66 67 3f 90 8c c8 3f af a6 1a 3f
       0.7559498 0.9039131 1.5667896 0.6041059
000130 87 f2 07 3e 04 73 40 3f b6 bf ef 3e 11 3f f1 3f
       0.1327611 0.751755 0.4682595 1.8847371
000140 b1 84 26 3e 13 1e a0 3f a6 83 f5 3e ad 89 60 3f
       0.16261555 1.2509178 0.47952002 0.87710077
000150 26 39 83 3f 78 b1 98 3f 42 76 4a 3f d3 e7 71 3f
       1.0251815 1.1929159 0.790867 0.9449436
000160 32 b8 97 3f ef 0a 89 3f 59 11 72 3f 4c 3c 4a 3f
       1.1853087 1.0706462 0.9455772 0.78998256
000170 f8 55 e0 3f 8f 89 e7 3f 3d ff 93 3f c3 9c 54 3f
       1.7526236 1.8088855 1.1562268 0.830517
000180 d6 da 94 3f ec c8 1b 3f 39 c7 b3 3f 6e e9 17 3f
       1.1629283 0.6085346 1.4045173 0.5934056
000190 d8 65 c9 3f 73 e6 f5 3f 70 5d 1c 3f 93 53 01 3f
       1.5734205 1.9210953 0.61080074 0.5051815
0001a0 76 fc d6 be 9a 1f 9e 3f b8 c6 fc 3f 5c 70 a0 3f
       -0.41989487 1.2353394 1.9748144 1.2534289
0001b0 a5 c6 a8 3f 06 99 94 3f 94 5f 9e 3f 80 57 ce 3e
       1.3185622 1.1609199 1.2372918 0.40301132
0001c0 fc da 1d 3f 20 1e a9 3f 48 db 8e 3f 86 06 b9 3f
       0.6166227 1.3212318 1.1160669 1.4455116
0001d0 7a e8 d2 3f 7b 1f 7c 3f eb e7 bc 3f 6e e7 dc 3f
       1.6477196 0.98485535 1.4758276 1.7258127
0001e0 76 90 a2 3f e7 67 d3 3f 8c 67 a3 3f ab 13 e0 3f
       1.2700336 1.6516083 1.2765975 1.7506002
0001f0 13 fe 9e 3f 1f 41 c7 3f 90 93 9a bd 94 33 ab 3f
       1.2421287 1.5566748 -0.075476766 1.3375115
000200 27 cd a1 3f c6 5d c4 be 85 3a 28 3f 49 61 81 3e
       1.2640733 -0.38352793 0.65714294 0.25269535
000210 0f 3b b7 bd ba 78 82 3e 15 f3 9c be 8f 1e ba bd
       -0.089468114 0.25482732 -0.30654207 -0.0908786
000220 b6 c2 8c 3e f1 e9 56 be 7b fb 33 3e 13 15 37 be
       0.27492303 -0.20987679 0.17576401 -0.17879133
000230 e8 e2 f3 3e bf 9c d9 3e cc 34 12 bf 88 bf ca 3d
       0.47634053 0.425024 -0.5711181 0.09899813
000240 76 1b e6 3d d3 07 d1 bd 4c 40 a0 bd 80 dc 94 3f
       0.112357065 -0.102065705 -0.07824764 1.1629791
000250 cc 91 ec be ae dd a3 3f 90 b2 76 bf cc 91 7b 3e
       -0.46204984 1.2802026 -0.96366215 0.24567336
000260 77 76 e6 3e 92 cf 8e 3e 93 78 46 3d 6d e3 0e 3f
       0.45012257 0.2789274 0.048454832 0.55815774
000270 d0 21 55 bd ed 4e 1e 3e f1 e8 8e 3e 49 f6 bd bd
       -0.0520342 0.15459795 0.27912095 -0.09275491
000280 e8 6a 2e be 6e de 0c bf 16 20 e3 3e 9c 3f 0f be
       -0.17032969 -0.550269 0.44360417 -0.13989109
000290 0f 52 4a 3f a1 bb 1a bf fd 9a e6 3c 58 5e 31 3e
       0.7903146 -0.6044255 0.028150076 0.17321146
0002a0 35 e9 3b bf 9e 1f c1 bf 8c 35 12 bf 28 81 37 bf
       -0.7340272 -1.5087774 -0.57112956 -0.7168145
0002b0 25 31 18 3e be 6b bc bc d0 ac 3f 3f 7b 17 3c bf
       0.14862497 -0.023000594 0.74873066 -0.7347333
0002c0 bd 44 f7 3e ea cb 4c be 3b b7 17 3f 72 d7 87 3e
       0.4829463 -0.19999662 0.5926396 0.2653156
0002d0 d8 b1 ac bd 33 dc 9d 3d e4 aa b1 ba e0 6a ba 3e
       -0.084323585 0.07708015 -0.0013554958 0.36409664
0002e0 01 f6 67 3d e8 d9 f3 bd db 1c 11 3f e6 d3 47 bf
       0.056631092 -0.11906797 0.56684655 -0.78057706
0002f0 2b 8c a6 be 7e f6 7a be 2d 2e 8f 3f 78 ad 7d 3f
       -0.32528815 -0.24508092 1.1185967 0.9909282
000300 23 23 a8 3e 36 0b 0f be 0b f4 8d 3e 60 10 dd be
       0.32839307 -0.1396912 0.27725253 -0.43176556
000310 eb e6 24 3f 03 0c 04 bf db 01 0f bf 0f 6c 33 bf
       0.6441485 -0.5158083 -0.55862206 -0.7008676
000320 ce 0e 5d 3d 90 2f 86 3f 6a 5d 5d bf da a7 79 3e
       0.053969197 1.0483265 -0.86470664 0.24380437
000330 77 e7 6b 3d 8c de f6 be e3 c8 2b 3f 98 00 fb be
       0.05759379 -0.48216665 0.67103404 -0.4902389
000340 74 e8 bd 3e 46 e4 0a 3f 4e e1 45 bf 66 55 c2 bd
       0.3709141 0.5425457 -0.7729691 -0.09488945
000350 bb a7 55 bf 9a 50 a1 3f 6f 0d 00 3e 65 81 19 bf
       -0.8345906 1.2602723 0.12505125 -0.59963065
000360 5b af 02 bf 0f 3d 33 3d 4a 32 3f 3f dc 0f d3 3d
       -0.5104882 0.043759402 0.7468611 0.10305759
000370 25 e2 ea be 51 00 98 be ad 03 fa 3e 7f f0 0f bf
       -0.4587566 -0.2968774 0.4883093 -0.5622634
000380 67 07 21 bf 38 6d e4 3b 01 14 59 bc f4 79 9a 3d
       -0.6290192 0.0069710277 -0.013249398 0.07542792
000390 30 98 ed 3e 02 05 b6 bf 72 eb 5d 3e 51 63 36 bd
       0.46405172 -1.4220278 0.21671847 -0.04452831
0003a0 98 56 c6 be a0 9f b2 bf 2f dd 21 bf f4 f7 3d bf
       -0.3873794 -1.3954964 -0.63228124 -0.7420647
0003b0 45 40 ed bd 6d 93 51 3f 58 6b 06 3e ac f8 e8 3d
       -0.11584524 0.8186558 0.13126886 0.113755554
0003c0 cd 04 55 bf a2 85 90 3e ca 49 a0 be 50 8e e0 3e
       -0.8321045 0.28226954 -0.31306297 0.43858576
0003d0 fe a5 42 3d 21 09 e9 3e 76 8c 49 be 1c bd 40 3d
       0.047521584 0.45514777 -0.19682488 0.04705535
0003e0 22 0e 3f be 0e bb 8c 3e b9 c8 1b be 9a b8 ec 3f
       -0.18657735 0.2748646 -0.15213288 1.8493836
0003f0 83 fd 79 bd fd 71 f8 3e d4 35 25 be 4a 69 3f bf
       -0.061032783 0.48524466 -0.16133815 -0.74770033

l2.bias f4 [128]
000000 1c 4e 98 bf 76 76 b0 be 43 bb 8e be 7f c6 57 bf
       -1.1898837 -0.3446538 -0.27877244 -0.84287256
000010 ec d7 47 bf 24 66 37 be 63 f4 ef bd 9f d1 31 be
       -0.78063846 -0.17910057 -0.11716535 -0.1736512
000020 1e 58 aa bf a6 16 00 be e1 64 62 be e8 63 55 bf
       -1.3308141 -0.1250864 -0.22108795 -0.8335557
000030 90 2b 24 be 69 5b 73 be 06 4a 66 be 37 bd 54 be
       -0.16032243 -0.23765339 -0.22489175 -0.20775305
000040 60 9e 38 bf 60 81 ab be 6e 53 87 be fe 99 25 bf
       -0.7211666 -0.33497143 -0.2643084 -0.646881
000050 be d1 fc bd 21 97 92 bd 7c e2 31 be f1 11 71 be
       -0.12344693 -0.07157732 -0.17371553 -0.23542
000060 f5 95 ed be 6b 76 9f bd d8 6b 6b be 16 28 c2 be
       -0.4640347 -0.07786258 -0.22990358 -0.37921208
000070 ac e2 ef be 49 50 84 be 99 40 d5 be b1 a9 11 be
       -0.46852624 -0.25842503 -0.41650847 -0.14224888
000080 61 78 8f be 98 6c 04 be 19 d6 ee bd 4a c6 88 bf
       -0.2802153 -0.1293205 -0.1166193 -1.0685513
000090 eb 81 83 bd 96 d5 55 be 7c ac 17 be 34 b3 8c be
       -0.06421264 -0.20882258 -0.14811891 -0.2748047
0000a0 0d 11 94 bd 39 58 40 be 3e 1e ad bd 59 7b d3 be
       -0.07229815 -0.18783654 -0.08453034 -0.41305044
0000b0 f0 79 82 be f5 8e ae bf 6d e1 12 be 06 5f 87 be
       -0.25483656 -1.3637377 -0.14343806 -0.26439685
0000c0 4a 76 80 bf 37 63 70 be 45 0e be bd ce 77 ce be
       -1.0036099 -0.23475347 -0.092800654 -0.4032578
0000d0 bd b2 03 be af a9 ce bd f1 cb c4 bd 0b 3a 0e bd
       -0.12861152 -0.10090958 -0.09609211 -0.034723323
0000e0 bb ce f0 be 9b 1c 45 bf a9 33 80 be cf 84 2f be
       -0.47032723 -0.76996773 -0.25039414 -0.17140506
0000f0 59 04 1d bf 54 6a f9 bd ce ea 22 bf 00 bc f2 be
       -0.6133476 -0.121784836 -0.63639534 -0.47409058
000100 06 a0 34 bf d3 2b cb be 7e 77 0a bf 10 a0 09 be
       -0.70556676 -0.39681873 -0.5408858 -0.13439965
000110 b5 e9 b8 be 2d 7c 8d bd aa c0 3d bf c5 30 cd be
       -0.36115804 -0.0690845 -0.7412211 -0.4007627
000120 5d ca 8c be c1 fb ef be 1d 0d ec bd 3d b2 ad bd
       -0.2749814 -0.4687176 -0.11525939 -0.08481262
000130 ac 07 b9 be 19 6d 2f be 00 3e e2 be 2f d6 af bd
       -0.36138666 -0.17131461 -0.44187927 -0.08585774
000140 43 84 bb bd a4 13 0d bf 09 ba 2f be 28 10 d8 bf
       -0.09156086 -0.55108094 -0.1716081 -1.687993
000150 47 8b 66 be da 37 25 be 94 d0 86 bf 6f 2b ce bf
       -0.22514068 -0.16134587 -1.0532403 -1.6107005
000160 c5 ad 89 be 37 1b 10 be da 8c 50 bf 46 06 1f be
       -0.26890388 -0.14072882 -0.8146492 -0.15529737
000170 9f 83 b4 bd 4f bb 0e bf be 47 13 be 05 b6 aa bd
       -0.08814167 -0.5575456 -0.14382836 -0.08335499
000180 da b7 e9 be 29 02 33 bf 18 58 0c be 4d 56 9b bf
       -0.4564808 -0.6992517 -0.1370548 -1.2135712
000190 e9 21 18 bf 52 25 d2 be 53 0a 71 be 58 fb b4 be
       -0.5942674 -0.41044098 -0.23539095 -0.3534801
0001a0 76 60 e9 bd 28 bb 0b bf 23 f6 cc be 1f ff f6 be
       -0.113953516 -0.5458245 -0.40031537 -0.48241517
0001b0 26 3e 07 bf 75 67 50 bd c8 07 98 bf 53 19 15 bf
       -0.52829206 -0.050879914 -1.1877375 -0.58241767
0001c0 4e 51 aa be cf 26 2a be ae 75 a6 be 1d f2 1d be
       -0.33265156 -0.16616367 -0.32511657 -0.1542439
0001d0 50 f7 d0 bd b2 54 92 bd be 96 8e be 58 4c 2e be
       -0.10203421 -0.071450606 -0.27849382 -0.1702131
0001e0 12 85 e8 bd f1 4a 65 bd 7e bd 04 be fb 49 c2 bd
       -0.11353506 -0.055979673 -0.1296291 -0.09486767
0001f0 66 4d 7f be 91 34 6a be 54 a5 89 bd 56 bb 8f be
       -0.24931869 -0.22871615 -0.06720987 -0.28072613

l3.weight f4 [357, 128]
000000 41 e5 18 c0 cd 3e 77 c0 f1 11 80 c0 89 ad b9 c0
       -2.3889925 -3.863208 -4.00219 -5.8024335
000010 6a f6 a4 c0 fd af d7 c0 9b f9 ab bd aa 46 21 bc
       -5.15508 -6.740233 -0.08397218 -0.009843508
000020 81 d9 10 c0 a6 78 f9 bb 25 19 12 c0 d2 75 e1 bf
       -2.2632754 -0.0076132594 -2.2827847 -1.7614081
000030 b5 ea 9c c0 12 5e 8f c0 b4 74 cb c0 35 db 86 c0
       -4.9036508 -4.480233 -6.357996 -4.2142587
000040 80 ba 90 c0 3a ec 74 c0 34 2c 7d c0 33 ea 10 c0
       -4.522766 -3.8269181 -3.955823 -2.2642944
000050 56 de 8e bd 39 ab 13 be 2f bc 6a c0 97 88 82 c0
       -0.06976001 -0.14420785 -3.6677358 -4.0791736
000060 5e 28 3e c0 90 47 18 bd fb c6 b5 c0 72 59 74 c0
       -2.9712138 -0.037177622 -5.6805396 -3.8179593
000070 c9 d8 66 c0 e2 ac 67 c0 32 f2 5c c0 7d 04 67 c0
       -3.6069815 -3.619927 -3.4522824 -3.609649
000080 9b fc f5 bf 43 7b c8 c0 18 21 45 3c f7 29 33 c0
       -1.9217714 -6.2650466 0.012031816 -2.7994363
000090 10 65 88 c0 4d 27 71 be ac 80 23 bd 0d d4 9b c0
       -4.2623367 -0.23550148 -0.039917633 -4.869635
0000a0 f1 8b 87 3c 1d 3e 84 c0 bb 1c 45 bb 11 6c d4 c0
       0.016546221 -4.132582 -0.003007694 -6.6381917
0000b0 20 dc 65 c0 94 55 2a c0 ec b6 0b c0 91 2b 88 c0
       -3.5915604 -2.6614733 -2.1830397 -4.255318
0000c0 36 33 e3 bf e7 40 92 c0 e6 61 7f bd f5 0d 5c c0
       -1.7750003 -4.5704226 -0.062349223 -3.4383519
0000d0 e6 53 ce c0 5c 52 0d be 3e c5 ba 3c 40 e4 28 bd
       -6.4477415 -0.13800949 0.02279913 -0.0412333
0000e0 9d 51 a8 c0 37 7e bb c0 fa c9 44 3d e7 a4 dd c0
       -5.2599626 -5.859157 0.048044182 -6.9263797
0000f0 ad bf 56 c0 8d b5 17 be c2 e2 ff bf 5e e1 bb c0
       -3.355449 -0.1481535 -1.9991076 -5.8712606
000100 f5 82 66 c0 47 db 12 c0 3b 3d 9e bf e2 40 ab c0
       -3.601743 -2.2946336 -1.2362436 -5.3516703
000110 4c dd 77 c0 71 93 4c 3b 33 09 6f c0 eb d8 dd c0
       -3.872882 0.0031215812 -3.7349365 -6.9327292
000120 6d 50 53 c0 52 a0 a3 c0 dd bd 35 c0 7c b6 dd bd
       -3.3017838 -5.1133204 -2.8397133 -0.10825822
000130 e1 4d a5 c0 37 81 fc bd d4 b5 73 c0 3b 7f a0 c0
       -5.1657567 -0.12329333 -3.807973 -5.015531
000140 22 e2 1a bd 0e a5 85 c0 13 80 8e c0 1c d2 fe bf
       -0.037813313 -4.1763983 -4.453134 -1.990787
000150 a1 b6 c6 c0 e4 55 14 c0 df 13 13 c0 f7 e9 00 c0
       -6.2097936 -2.3177423 -2.2980878 -2.01428
000160 bf 80 88 c0 62 5b 8a c0 35 35 05 c0 10 c5 b4 c0
       -4.265716 -4.323655 -2.0813725 -5.6490555
000170 13 cc 6a be aa fd cb c0 5f bc 77 c0 39 db 10 be
       -0.2292941 -6.374715 -3.8708723 -0.14146127
000180 f2 54 36 c0 e9 a0 7b bf 11 7b 94 bf b7 bc b3 bf
       -2.8489347 -0.98292404 -1.1600057 -1.4041966
000190 7f 2f 42 c0 6c 2e cc c0 3d 64 59 c0 be 71 5c c0
       -3.034149 -6.3806667 -3.396743 -3.4444423
0001a0 87 23 3f c0 37 e9 b5 bf 45 50 86 c0 ad 38 a1 c0
       -2.9865434 -1.4211797 -4.1972985 -5.0381684
0001b0 d6 75 95 c0 de 20 84 bd fb 58 f8 bf 31 f4 65 bf
       -4.6706343 -0.064515814 -1.9402155 -0.8982573
0001c0 03 18 67 c0 95 a9 a1 c0 f9 e0 95 c0 3a 1a cd c0
       -3.6108406 -5.051951 -4.6837125 -6.4094515
0001d0 c7 9d 8f c0 03 15 5f 3d 2b 3d 30 c0 55 b0 28 c0
       -4.48801 0.054463398 -2.7537334 -2.6357625
0001e0 2a 31 cf bc aa 86 2c be 98 a8 c0 bd b1 7d d7 bd
       -0.025291998 -0.16848245 -0.09407157 -0.105220206
0001f0 20 99 09 c1 8f e3 d3 c0 1c e8 29 be 34 1f 92 c0
       -8.599884 -6.621528 -0.16592449 -4.566309
000200 8a ec 3c c0 e0 6f a5 c0 e5 01 6b c0 a5 33 9f c0
       -2.9519372 -5.1699066 -3.6719906 -4.9750543
000210 03 6d 64 c0 22 17 6a c0 f4 c1 db bd c1 e6 d7 bd
       -3.5691535 -3.657662 -0.10730353 -0.1054206
000220 27 d2 04 c0 ad 9f c6 bc 84 4f 10 c0 6e f5 b7 bf
       -2.0753267 -0.024246061 -2.2548532 -1.4371774
000230 8e c3 47 c0 1a 5d cc c0 78 0b b6 c0 01 dd 58 c0
       -3.1213107 -6.386365 -5.6889 -3.388489
000240 a4 4c 99 c0 fd d3 3c c0 e7 1d 8f c0 bb 9a 16 c0
       -4.7906055 -2.9504387 -4.4724 -2.353194
000250 cc 89 bc 3c ad f6 7c bd 63 a3 89 c0 29 fd 56 c0
       0.023014925 -0.061758686 -4.3011947 -3.3592017
000260 14 c2 22 c0 72 60 3a bd 1f a1 c1 c0 c5 cf 50 c0
       -2.5430956 -0.045502134 -6.050918 -3.2626812
000270 59 fc 6f c0 76 ee 62 c0 55 60 5e c0 1d 1b 2b c0
       -3.749777 -3.5458045 -3.4746296 -2.6735299
000280 ad 7f 16 c0 b6 92 be c0 96 34 74 3d de a5 42 c0
       -2.3515427 -5.955409 0.059620462 -3.0413737
000290 e3 6c a7 c0 73 4a bd bd f6 52 f8 bc da 63 4f c0
       -5.232042 -0.09242716 -0.030312996 -3.2404695
0002a0 ae d8 c6 3c df d8 26 c0 80 18 4c bd 59 28 b3 c0
       0.024273243 -2.6069868 -0.049828053 -5.5986753
0002b0 c4 ea 9b c0 12 f6 44 c0 0c 6d fd bf b4 53 32 c0
       -4.872408 -3.077519 -1.9798903 -2.7863588
0002c0 2c 82 0a c0 29 2a 5a c0 4a 2b 6c bc ca 6f 96 c0
       -2.164195 -3.4088233 -0.014414618 -4.701146
0002d0 39 fd a4 c0 f2 b9 cd bd c1 c9 85 bd 62 f6 8b bd
       -5.155911 -0.10045232 -0.06532622 -0.06834103
0002e0 b8 f8 21 c0 9f 5c 73 c0 1e e9 08 be 4e cf cf c0
       -2.5308056 -3.8025281 -0.13370177 -6.4940557
0002f0 71 c7 86 c0 1b 05 82 bd 10 1b 92 bf a0 94 b6 c0
       -4.211846 -0.0634863 -1.1414509 -5.7056427
000300 42 5d 70 c0 e6 b5 e4 bf 60 bd 5b bf d4 c6 87 c0
       -3.755692 -1.7868011 -0.8583584 -4.243021
000310 b4 ad 82 c0 c3 18 29 3c 7b 04 62 c0 fb 2e 8f c0
       -4.083704 0.010320845 -3.5315235 -4.474485
000320 1a a0 2d c0 85 a5 3e c0 99 b0 1c c0 d5 9b 19 3d
       -2.7128968 -2.9788525 -2.4482787 0.03750213
000330 40 20 82 c0 9c b9 d2 bd 9e 68 99 c0 4c 7d 37 c0
       -4.066437 -0.102893084 -4.7940207 -2.8670225
000340 80 b5 57 bc 4f 63 9b c0 a7 f3 68 c0 32 d8 1b c0
       -0.013165832 -4.8558726 -3.6398714 -2.4350705
000350 08 50 c0 c0 4f 0c 34 c0 7d 0b 1b c0 ba 21 21 c0
       -6.0097694 -2.8132513 -2.4225762 -2.5176835
000360 cd 5f 3b c0 7c f2 94 c0 7f 23 bc bf b9 5b a2 c0
       -2.9277222 -4.6546 -1.4698333 -5.0736966
000370 43 f3 8c be ad 88 ee c0 31 69 58 c0 3a 45 9c bd
       -0.27529344 -7.454184 -3.3814204 -0.076303914
000380 ff d2 60 c0 88 4b b7 bf ed 55 93 bf fd 97 8a bf
       -3.5128782 -1.4319925 -1.1510597 -1.0827633
000390 0e b5 47 c0 bc c6 37 c0 89 89 51 c0 ab 6a 64 c0
       -3.1204257 -2.8715048 -3.2740195 -3.5690105
0003a0 15 60 28 c0 49 b9 a6 bf de b8 7b c0 c9 e1 b9 c0
       -2.6308644 -1.3025295 -3.9331584 -5.8088117
0003b0 1e bf 54 c0 86 32 02 bb bc 1d cf bf 13 72 ec be
       -3.3241649 -0.001986654 -1.6180949 -0.46180782
0003c0 dc a4 61 c0 48 43 9f c0 42 7c 3d c0 f2 02 57 c0
       -3.5256872 -4.976963 -2.960709 -3.3595548
0003d0 aa 1a 8e c0 f2 f7 45 3d fe 8c ac c0 fc fd 0d c0
       -4.440755 0.048332162 -5.392211 -2.218627
0003e0 7e a3 c5 bd a8 55 18 3d 02 55 fd bd c4 2e be bb
       -0.09650324 0.037191063 -0.123697296 -0.0058039147
0003f0 98 d0 84 c0 88 02 79 c0 76 3b ef bc 94 72 90 c0
       -4.150463 -3.8907795 -0.029203158 -4.5139866

l3.bias f4 [357]
000000 cb 00 a9 c1 bb ee b5 c1 8c fd a5 c1 16 0b ab c1
       -21.125387 -22.741568 -20.748802 -21.380413
000010 56 d4 b1 c1 c0 b8 ac c1 64 e3 c8 bf 9c 07 ac c1
       -22.22868 -21.59021 -1.5694394 -21.503716
000020 e3 de a9 c1 35 7c b0 c1 41 21 ab c1 20 1d b3 c1
       -21.233831 -22.060648 -21.391237 -22.389221
000030 29 fb c8 bf fd 2d ad c1 d5 2e aa c1 5f 10 a3 c1
       -1.5701648 -21.647455 -21.272867 -20.382994
000040 d5 b6 b3 c1 55 72 a6 c1 9a 06 a6 c1 c8 ba b3 c1
       -22.464273 -20.805826 -20.753223 -22.466202
000050 d7 df b3 c1 1d e5 b2 c1 fa 7b ae c1 7e a5 b3 c1
       -22.484297 -22.361872 -21.810535 -22.455807
000060 f6 f3 ad c1 e5 9c 9f c1 4f 96 b3 c1 97 fd b3 c1
       -21.744122 -19.951609 -22.448393 -22.498823
000070 70 80 a5 c1 08 88 b0 c1 d6 89 b0 c1 2e bc b1 c1
       -20.687714 -22.066422 -22.067303 -22.216885
000080 b0 cb a5 c1 fc 3f c6 bf 63 0e af c1 9f 33 b2 c1
       -20.724457 -1.5488276 -21.882025 -22.275206
000090 c0 86 b1 c1 bb 85 ab c1 33 44 ac c1 6f d4 25 bf
       -22.190796 -21.440298 -21.5333 -0.6477727
0000a0 1c ab b1 c1 27 8f 16 3e 8d 8c b4 c1 8e f1 a5 c1
       -22.20855 0.14703046 -22.568628 -20.742947
0000b0 15 7f b0 c1 e3 a1 b5 c1 ff 7b b5 c1 47 16 ac c1
       -22.062052 -22.704046 -22.685545 -21.510878
0000c0 e7 70 08 c0 e8 bd a0 bf cd 0d a9 c1 ca 4b 60 bf
       -2.131891 -1.2557955 -21.131739 -0.87615645
0000d0 eb e0 9b c1 c1 19 a4 c1 98 54 3a be 7f f6 ab c1
       -19.484823 -20.512575 -0.18196332 -21.49536
0000e0 fc 7d 26 bf 2c 12 b3 c1 73 4b ac c1 f5 53 b3 c1
       -0.65035987 -22.383873 -21.53684 -22.415995
0000f0 ad c0 3e bf 76 1c af c1 02 00 a7 c1 33 ca ad c1
       -0.7451275 -21.888897 -20.875004 -21.72373
000100 d2 73 f7 3d bb 8f af c1 1e 09 b2 c1 bc 02 ab c1
       0.12082638 -21.94518 -22.254452 -21.376335
000110 d8 0c aa c1 92 70 34 bd 2e 60 b0 c1 5e 34 ae c1
       -21.256271 -0.044052668 -22.046963 -21.77557
000120 5d d9 9e c1 f5 c1 a5 c1 9e 12 2c bf f0 04 b2 c1
       -19.856134 -20.719706 -0.6721591 -22.25241
000130 58 57 af c1 d8 f1 b0 c1 0d f4 af c1 19 1b a0 c1
       -21.917648 -22.118088 -21.994165 -20.013231
000140 bb 35 57 bf 0a 1e 8a bf f9 1c b5 c1 d8 72 b2 c1
       -0.8406636 -1.0790417 -22.639147 -22.306076
000150 49 81 ab c1 21 e0 de bd 6c 36 e4 bd 02 e8 b3 c1
       -21.438128 -0.10882593 -0.11143193 -22.488285
000160 66 33 b3 c1 55 0b 85 bf ab 0f b4 bf b0 bf b5 c1
       -22.400097 -1.0394083 -1.4067281 -22.718597
000170 4a 6b b6 bf 99 65 a7 c1 e4 04 ad c1 bd ff a6 c1
       -1.4251492 -20.924608 -21.627388 -20.874872
000180 85 d9 a7 c1 8d 42 ad c1 26 96 b3 c1 26 64 b5 c1
       -20.98121 -21.657495 -22.448315 -22.6739
000190 06 93 ae c1 b9 d2 b0 c1 68 36 b0 c1 f7 ea af bf
       -21.821789 -22.102892 -22.026566 -1.374358
0001a0 85 c3 ac c1 08 cf a4 c1 13 56 46 be bb e5 ac c1
       -21.595469 -20.60109 -0.19368772 -21.612173
0001b0 03 33 43 bd 5a 13 54 bf e9 af af c1 76 1d a2 c1
       -0.04765607 -0.8284203 -21.960894 -20.264385
0001c0 ca 4f a8 c1 1e 47 b0 c1 2c d0 af c1 3e f3 a9 c1
       -21.03896 -22.034725 -21.976646 -21.24377
0001d0 3b 80 75 bf be 67 5d bf 6e 79 ad c1 ab fe b0 c1
       -0.9589879 -0.86486423 -21.684292 -22.12435
0001e0 79 c1 0c c0 fc 0a b0 c1 79 b5 29 c0 ad f0 9e c1
       -2.1993086 -22.005363 -2.6517012 -19.867517
0001f0 e6 54 5f bf 04 22 64 bf 7b 32 a9 c1 0c 6b a0 c1
       -0.8723892 -0.89114404 -21.149649 -20.052269
000200 f8 6a b1 c1 7b fe a9 c1 d9 d6 95 be c1 84 3e c0
       -22.17723 -21.249258 -0.29265478 -2.9768527
000210 d0 ff bc bf 81 69 a6 bf 45 a4 ab c1 6e 69 a8 c1
       -1.4765568 -1.3000947 -21.45521 -21.05148
000220 e0 8a 07 be 54 c8 a2 3d 24 dd 36 bf 7e c6 9f c1
       -0.1323657 0.07948366 -0.71431184 -19.97192
000230 cd c7 b0 3c 46 5c 17 be 52 1a d9 bf 66 03 a3 c1
       0.021579647 -0.14781293 -1.6961157 -20.37666
000240 d0 a8 a4 bf c4 37 d3 bf b4 29 a3 c1 80 29 fe bf
       -1.2864017 -1.6501393 -20.395363 -1.9856415
000250 fb 89 8f bf c7 b0 aa c1 cb 9a 49 3e d6 48 4b bd
       -1.1213983 -21.336317 0.19687955 -0.04963001
000260 0d 89 a5 c1 86 25 0a c0 59 4b 09 c0 82 61 a8 c1
       -20.69192 -2.1585402 -2.1452239 -21.047611
000270 ad 96 5e bc 36 1c ad c1 d5 c5 f3 bf a0 fa d8 bf
       -0.013585729 -21.638775 -1.9044749 -1.6951485
000280 e3 7a 35 3e f7 1b af bf 2b b9 62 3e 2f c4 98 bf
       0.17722659 -1.3680409 0.22140948 -1.193487
000290 50 b3 95 c1 f7 82 a1 c1 c5 a2 0c c0 ea 50 1c bd
       -18.712555 -20.188948 -2.1974347 -0.038163103
0002a0 da 67 22 bd f2 c9 7d bf 0c 95 28 3e b3 ca 78 3c
       -0.03964982 -0.9913627 0.16463107 0.015185046
0002b0 7f 3e 4b bf ae 02 42 bf 28 2e 82 bc a5 5f 92 be
       -0.79392236 -0.7578534 -0.01589115 -0.28588596
0002c0 6a 93 a7 c1 84 6a 0b bd 42 90 a7 c1 12 d4 b7 bf
       -20.94698 -0.034037128 -20.945438 -1.4361594
0002d0 86 4a 2d c0 af c4 a9 c1 6b cc 16 c0 7b 81 a0 c1
       -2.7076735 -21.221037 -2.3562267 -20.063223
0002e0 24 f1 b0 c1 cf 89 b0 c1 79 47 a6 c1 91 98 f2 bf
       -22.117744 -22.06729 -20.784899 -1.895281
0002f0 b3 5f af c1 3d 6f 2f be b4 57 a2 c1 6f f0 16 3d
       -21.921728 -0.17132278 -20.292824 0.03685039
000300 da 6e e7 bf 1b 8e 05 c0 c9 72 c1 bf 5f d4 d7 bf
       -1.8080704 -2.0867984 -1.5113155 -1.6861686
000310 6a cc 9c c1 e8 7f 4e bf 97 fb a8 c1 cb 45 37 bf
       -19.599812 -0.8066392 -21.122847 -0.7159087
000320 20 47 34 bf b6 b7 bd bf 8d 77 2a c0 91 bd ae bf
       -0.7042103 -1.4821689 -2.6635468 -1.3651601
000330 75 f9 00 c0 b5 b7 3e c0 bb 84 6a 3e 60 35 4e bf
       -2.0152256 -2.9799626 0.22902195 -0.80550194
000340 a1 56 b1 c1 7b 3e ac c1 87 de ad c1 56 af a9 c1
       -22.1673 -21.530508 -21.733656 -21.210613
000350 e0 7b ae c1 82 ed ad c1 d0 a3 00 3e 2c 7d b0 c1
       -21.810486 -21.74097 0.1256249 -22.06112
000360 c9 ad a8 c1 21 0e 29 c0 d9 85 f3 3c 5e 62 9f c1
       -21.084856 -2.6414874 0.02972691 -19.92303
000370 e0 0e fe bf 03 2d f4 bf e7 7b a5 bf 05 e2 a0 c1
       -1.984829 -1.9076236 -1.2928437 -20.110361
000380 0e bc de bf 21 40 ad c1 aa 48 af c1 f3 31 b7 c1
       -1.740114 -21.656313 -21.91048 -22.89939
000390 85 99 5d be 81 0a 12 c0 29 41 b2 c1 3a 39 51 be
       -0.21640594 -2.281891 -22.281816 -0.20431986
0003a0 bb c4 a9 c1 af 73 83 bf 7f 91 97 bf 2b e4 ae be
       -21.22106 -1.0269679 -1.1841277 -0.34158453
0003b0 87 35 bc bf 10 bd a4 bc b8 6c 7d bc 2d 2f 58 be
       -1.4703835 -0.020109683 -0.015467815 -0.21111746
0003c0 b7 e6 b2 c1 10 b6 1d 3d 19 bd 2c 3d 76 de 2b c0
       -22.362654 0.038503706 0.042172525 -2.685453
0003d0 b0 e5 8c bf 3c b6 b5 bf 63 d1 a2 bf 93 d9 2a c0
       -1.1007595 -1.4196239 -1.272015 -2.6695297
0003e0 c7 30 ba bf 62 4b d7 bf 89 58 76 bf 32 69 b0 c1
       -1.4546136 -1.681988 -0.96228844 -22.051365
0003f0 d1 15 f4 bf 06 be ac c1 b5 a2 2a c0 9b 96 36 bf
       -1.9069158 -21.592785 -2.6661808 -0.71323556
